CNN_threshold/cnn_model.pth (torch, 139417 bytes, 19 tensors)

weight f4 [3, 1, 3, 3]
000000 40 ff 7b be f4 a3 25 3e 5c 6b 46 3e 0f 5d 9a be
       -0.24609089 0.16175824 0.19376892 -0.30149123
000010 70 eb 01 be ee b8 cd 3d 9d d7 be be 5a 25 72 bd
       -0.12687469 0.10045038 -0.37273875 -0.059117652
000020 61 1e d7 3e 97 cb 51 3e e0 d6 1a be 55 9f 35 bf
       0.42015365 0.2048782 -0.15121031 -0.70946246
000030 35 0d 0e bd b6 54 a8 be 8e b0 81 be ee d0 04 be
       -0.034680564 -0.3287713 -0.25330013 -0.12970325
000040 cb 81 b6 bc e2 cc 8b 3e c2 ed 87 3d 17 ae 87 3e
       -0.022278687 0.2730475 0.066371456 0.26500008
000050 48 e1 1e 3f a1 bc d6 bb 14 cb 7d 3d 14 fd fd 3d
       0.620625 -0.006553248 0.06196125 0.124017864
000060 70 67 71 be 2c 10 4e be 71 2d be be
       -0.23574615 -0.20123357 -0.37144044

weight f4 [3]
000000 cc 11 7a 3f 88 55 7d 3f 6d 48 7f 3f
       0.97683406 0.98958635 0.9971989

bias f4 [3]
000000 06 3b 97 3e 0c 24 88 3e b2 70 c8 3d
       0.2953722 0.26590002 0.0978712

running_mean f4 [3]
000000 43 bf c1 bd d5 25 f1 be c7 89 02 3e
       -0.094603084 -0.47099176 0.1274787

running_var f4 [3]
000000 f5 61 86 3d f4 f8 8c 3e 24 64 c3 3d
       0.065616526 0.27533686 0.09540585

weight f4 [32, 3, 1, 1]
000000 76 44 12 be e6 78 19 3f d1 8a 40 3e 0d fc 6f 3e
       -0.14283928 0.599501 0.18802954 0.23435993
000010 03 8e 47 3f 2b d0 c9 3d 3c 5e 15 3e 9e 13 c5 39
       0.7795107 0.09854158 0.14586729 0.00037589384
000020 fe 8f 05 bf e2 03 23 3e 40 86 08 3f 54 08 93 3e
       -0.5217284 0.1591945 0.5332985 0.2871729
000030 21 ad fd be 92 18 03 bf 3e 70 23 be 45 d3 1e bf
       -0.4954615 -0.51209366 -0.15960786 -0.6204112
000040 3a 5c 11 3f 98 da e1 3e dd b0 84 3c d0 8b 10 be
       0.5678135 0.44112086 0.016197616 -0.14115834
000050 f1 34 b9 be cf 8f df be c9 0b fb 3e db 36 80 3d
       -0.36173204 -0.43664405 0.4903243 0.06260463
000060 cc 66 0f 3f 81 f0 4c be a6 04 36 bf dc 13 2f bf
       0.5601623 -0.2001362 -0.7110084 -0.6838968
000070 ba de c4 3e d0 52 ef b9 9f 63 bf be 8f 79 22 be
       0.38451177 -0.00045647332 -0.37380692 -0.15866683
000080 11 b2 b8 3e 42 1a 22 bf 67 47 6b 3c 10 1c c9 3e
       0.36073354 -0.63321316 0.014360285 0.39279222
000090 a1 c5 32 be ec 7b 42 be 7f e4 14 bf d0 a5 7d be
       -0.17458202 -0.18992585 -0.5816116 -0.24770284
0000a0 1d b3 ae 3e 15 d4 92 be bf 67 9e 3e 21 74 cc 3b
       0.34121028 -0.2867743 0.30938527 0.0062394296
0000b0 b8 7a f1 be 61 36 1f bf ce 64 12 bd 8d 74 16 bf
       -0.4716394 -0.6219235 -0.035740666 -0.5877159
0000c0 b3 81 0a 3f c9 8e 0f bf eb 2f bc 3c 5b 2a fb be
       0.54104155 -0.5607725 0.022972068 -0.49055752
0000d0 d8 e5 37 3b 0a 68 f9 be 9c 7b 19 3f 1f 3e a4 3c
       0.0028060582 -0.48712188 0.5995424 0.020049153
0000e0 9b ea 83 be fb bc 4a 3e 92 d9 24 be 7d 66 fa be
       -0.25764927 0.19798653 -0.16098621 -0.48906317
0000f0 65 1d 08 be 2a 90 09 bf 45 b3 0c be b9 92 95 bd
       -0.13292463 -0.537356 -0.13740261 -0.07303376
000100 8c 89 d1 3e 7d 47 64 3e 1e 84 12 be da 59 70 bd
       0.40925252 0.22292896 -0.14308211 -0.05867944
000110 34 7d ea be f8 5a 9b 3e dc 93 ca be d9 af 09 3f
       -0.45798647 0.3034284 -0.39565933 0.5378395
000120 7c e5 ed 3e 98 60 b6 3e 7e 3f e3 bc 5b 50 c8 3e
       0.46464145 0.3562057 -0.027740236 0.39123806
000130 fe 67 04 bf 54 e3 37 be d0 c8 6a 3b 4f 51 dc 3e
       -0.5172118 -0.17957813 0.003582526 0.43030784
000140 36 e0 00 3f 23 24 08 3e d8 97 01 bf ec fe 23 bf
       0.5034212 0.13295035 -0.5062232 -0.64060855
000150 f3 63 28 3e ee 69 10 be 18 f5 13 bf 18 90 00 3f
       0.16444378 -0.14102909 -0.5779586 0.5021987
000160 16 8d e4 3e d8 8c c2 3e 70 78 a0 bc 29 44 ea 3e
       0.4463889 0.3799808 -0.01958868 0.45755127
000170 d9 cc 0e 3e 75 aa c3 3a ad e5 d6 3b 13 f1 66 c0
       0.1394533 0.001492812 0.006558141 -3.608464

weight f4 [32]
000000 b7 58 6e 3f 79 0e 7e 3f 6e 53 76 3f 9a 26 a6 3f
       0.9310412 0.99240834 0.96221054 1.298053
000010 9a b4 2d 3f 1e c9 72 3f 13 d5 3c 3f ab 16 99 3f
       0.678537 0.9483813 0.73762625 1.1960043
000020 31 d5 30 3f 4f c9 b0 3f 3f fd 23 3f f4 dd 47 3f
       0.69075304 1.3811435 0.640583 0.7807305
000030 ef b8 99 3f 71 d1 6b 3f d9 86 42 3f 28 bc 84 3f
       1.2009562 0.9211646 0.7598701 1.0369921
000040 85 30 44 3f 14 92 9c 3f e0 69 20 3f 41 69 5f 3f
       0.76636535 1.223208 0.6266155 0.8726998
000050 94 63 4d 3f 41 be a8 3f 0b fc 84 3f 60 8e 58 3f
       0.8023007 1.3183061 1.0389417 0.84592247
000060 26 98 98 3f 2c 9d 2f 3f 22 62 69 3f 2c d2 6f 3f
       1.1921432 0.685992 0.91165364 0.9368007
000070 82 40 65 3f 9c 3d 41 3f 67 c6 77 3f bd 43 88 3f
       0.89551556 0.75484633 0.9678711 1.0645672

bias f4 [32]
000000 c2 62 06 bf 37 a0 26 bf b9 57 c6 be 85 00 ea be
       -0.5249444 -0.6508822 -0.38738802 -0.4570352
000010 ea 27 7f be e9 0d d5 be 5d 22 26 bd a2 42 ce be
       -0.2491757 -0.41612175 -0.040560115 -0.40285212
000020 b6 f4 c7 bd f2 f1 d3 be d8 f0 7c be 83 22 9f be
       -0.09763472 -0.41395527 -0.2470125 -0.31081018
000030 44 45 9e be 67 03 d2 bc 7b 3f 9d bd 11 0e 8f 3f
       -0.3091222 -0.025636388 -0.076781236 1.1176168
000040 4e c8 6a be 13 c7 d3 be 5e 54 d7 be 47 da 95 be
       -0.22927973 -0.4136282 -0.42056555 -0.29268095
000050 10 87 31 be ad 3c a2 be da 7f df bd 2b cb a7 be
       -0.17336679 -0.31686917 -0.109130576 -0.32772192
000060 20 c7 a3 be 88 75 6b bf 50 c7 e8 be 09 4d 6d be
       -0.31987858 -0.91976213 -0.45464563 -0.23173918
000070 09 ec c4 3e 84 e2 e8 be 30 e6 2c bf 1d 27 b0 3e
       0.3846133 -0.45485318 -0.6753874 0.3440484

running_mean f4 [32]
000000 21 ce c1 3e 2f 86 27 3f 8a 1c 12 be 84 20 0a 3f
       0.37852576 0.6543912 -0.142687 0.53955865
000010 b8 12 27 bf ef 18 56 3e 7e 0d 6f be 7f 2e ca 3d
       -0.6526294 0.20907949 -0.2334499 0.0987215
000020 ec 3a 01 be 88 fc 01 be a8 e6 13 be 89 fc 26 be
       -0.12620133 -0.1269399 -0.14443457 -0.16307272
000030 a1 3e eb be 90 35 24 bd 58 02 f8 bc 16 c0 1a bf
       -0.4594622 -0.040090144 -0.030274555 -0.6044935
000040 eb 34 48 bd 50 79 ef be db 9d 65 3e ed f7 4d be
       -0.04887859 -0.46772242 0.22423498 -0.20114107
000050 27 1a ee be 21 ed 9e 3e 46 b2 9d be ec b1 12 3e
       -0.46504328 0.3104029 -0.30800074 0.14325684
000060 07 0a eb 3e 56 69 42 be 78 a0 f7 3e b0 51 04 bf
       0.45906088 -0.18985495 0.48364615 -0.51687145
000070 c3 b1 7b be 9a 73 35 3f 9c 1f ab 3e 08 5b c3 bf
       -0.2457953 0.7087952 0.33422554 -1.5262156

running_var f4 [32]
000000 f5 b7 8c 3d 12 46 4c 3e 3c 70 01 3e d5 23 92 3d
       0.068710245 0.19948605 0.1264047 0.07135741
000010 e7 d1 3f 3e 98 ba 28 3e 88 78 1e 3d 8e f5 e6 3d
       0.18732415 0.1647743 0.038689166 0.112773046
000020 08 af 86 3e d4 2e 54 3e 84 9e 1b 3e 62 df 5d 3e
       0.26305413 0.20720989 0.15197188 0.21667245
000030 e7 9d 04 3e 3a db 0f 3e 3c 4e 08 3e 33 d0 a6 3e
       0.1295086 0.14048472 0.13311094 0.32580718
000040 70 d4 41 3e 0e b4 5f 3e 39 53 31 3e e8 74 aa 3d
       0.18928695 0.21846029 0.17316903 0.08323079
000050 f1 88 9f 3d 59 0a db 3c 20 77 c1 3d 8c 16 a2 3e
       0.077897914 0.026738333 0.094465494 0.31657827
000060 19 c8 1b 3e 24 7e b0 3d 64 1e 82 3d 08 d9 c6 3d
       0.1521305 0.086178094 0.06353453 0.09709364
000070 71 f5 f3 3d de ac 3a 3e dd da 26 3d 6d a6 bb 40
       0.119120486 0.18230006 0.040736068 5.8640656

weight f4 [64, 32, 3, 3]
000000 f0 d5 52 be af 4f 13 3d e7 5b 0d 3e 61 92 99 3d
       -0.20589423 0.035964664 0.13804589 0.07498623
000010 59 95 f8 3d ca a8 71 bd c1 c5 c3 bd 3f 0c 30 be
       0.12137861 -0.05899886 -0.09559203 -0.17192172
000020 a1 52 38 be 1f a9 25 bd 55 1f a7 bd ff fb 4d bd
       -0.1800027 -0.04044449 -0.08160273 -0.05028915
000030 1d 1f 14 3e e1 b4 ce 3e b7 c5 33 bd de f2 80 be
       0.14464994 0.40372375 -0.043889727 -0.25185293
000040 59 70 92 be 45 e7 db 3b 51 2f 34 3e d0 37 63 3e
       -0.2860134 0.006710919 0.17596175 0.2218926
000050 aa a0 94 3d 10 43 cd 3d 41 00 f7 3e 3e 4a 4c 3b
       0.07257207 0.10022557 0.4824238 0.0031172181
000060 4f 49 97 be b1 8f d7 bc 28 34 47 be 16 dd 71 3d
       -0.29548118 -0.026313635 -0.1945349 0.059048735
000070 c3 e2 8d bd fb 08 b2 be ca 21 b8 3e 83 7a 6a be
       -0.06928017 -0.34772477 0.3596328 -0.22898297
000080 14 22 9c be a0 ac 18 3c ba 17 88 be fc ca 29 3e
       -0.3049475 0.009318501 -0.26580602 0.16581339
000090 be 02 0f be 68 d3 a7 be 3b 94 93 bd 5a 13 20 3e
       -0.1396589 -0.32778478 -0.07206007 0.15632382
0000a0 e5 82 86 bd cd bd 6d 3e 65 0d 06 bd b3 d6 3e be
       -0.06567935 0.23216935 -0.032727618 -0.18636589
0000b0 c8 5a a1 bc d0 2b d9 bb 6c ac cf 3d de f3 86 bd
       -0.019696608 -0.0066275373 0.10140309 -0.06589483
0000c0 84 40 01 3d a0 da 90 3e e7 78 59 3e c9 8b 8b 3d
       0.031555668 0.28291798 0.21237527 0.06813771
0000d0 ac 6d 57 bd c4 1c 70 3e 09 91 91 3c 5d 7e 9e be
       -0.052594826 0.23448473 0.017769353 -0.30955783
0000e0 aa be 98 be 82 70 f5 3d ba 4c b2 3d 79 ad 5e 3d
       -0.29832965 0.1198435 0.08706041 0.054364655
0000f0 24 dd 09 be 29 e1 4c 3d b3 17 7e 3e f9 ca fc be
       -0.13463265 0.050019417 0.24813728 -0.49373606
000100 25 98 bb bc ec 09 33 3e 33 2d 28 be fe 0a 72 3e
       -0.022899697 0.17484254 -0.16423492 0.23637006
000110 17 e4 b0 3e ad ea de bd 7b 1f c0 3d ec 74 8b be
       0.3454902 -0.108846046 0.093810044 -0.27237642
000120 01 e3 c7 3d 01 be a1 3e 21 19 a4 3c b7 7f d7 3d
       0.097600944 0.31590274 0.020031514 0.105224065
000130 92 84 c2 3e 75 94 01 be 69 1d 83 be d1 0b bf 3d
       0.37991768 -0.12654288 -0.25608376 0.09328426
000140 1b 86 96 3d 58 8e d3 be 5d 39 84 be c8 77 56 3c
       0.07349797 -0.41319537 -0.25825015 0.0130900815
000150 f3 d3 41 3e 0f 95 0e 3f b7 c7 eb 3e b8 2b 7f bd
       0.18928508 0.55696195 0.46050808 -0.062297553
000160 bb 97 92 3d a7 e2 be be 48 e7 22 bc 66 1c e5 3d
       0.071578465 -0.37282297 -0.009942837 0.11187057
000170 25 d9 1c be 97 4e 81 bd 75 c0 cf bd 3b 92 ff 3d
       -0.15317209 -0.06313818 -0.1014413 0.12479063
000180 ce a9 06 3f e8 95 3c 3d d5 81 a6 3e 4a ed 97 3c
       0.5260285 0.0460414 0.3252093 0.018545765
000190 3b ab 33 3d 7e 9a 2a be 4f 8f f0 3c 71 97 5e be
       0.04386447 -0.16660497 0.02936521 -0.21737458
0001a0 ff 45 17 3e 03 9c f4 3e e8 43 21 bd 3e f7 a2 3e
       0.14772795 0.47775277 -0.0393714 0.31829256
0001b0 e2 3e 2b be 7d a1 e3 be c0 f9 f0 bd 41 ee 84 3d
       -0.16723207 -0.44459143 -0.11766386 0.06490756
0001c0 83 16 00 be b1 5b 3a 3d f5 9b ad be 88 20 98 3d
       -0.12508588 0.0454976 -0.33908048 0.0742808
0001d0 bb e6 b2 3e 7e db 3d be f4 03 ec 3d 92 44 00 be
       0.34941658 -0.18540761 0.115241915 -0.12526157
0001e0 df 75 25 3e 83 28 3e 3e 3a 7c ae 3e 8e c7 31 be
       0.16158246 0.18570141 0.34079152 -0.1736128
0001f0 8f 26 61 be c4 0a f5 bd be a4 dc 3d 53 2c e1 3e
       -0.21987365 -0.11964944 0.107736096 0.4397913
000200 c1 dc b7 3d a1 a3 88 3c 27 5d ed 3e 60 b4 f8 bb
       0.08977652 0.016679587 0.46360132 -0.0075898618
000210 e9 98 84 be 0c 05 37 bd 6e 32 5e 3c 11 83 da bd
       -0.2589791 -0.044682547 0.013561828 -0.1066953
000220 c4 97 90 be 81 86 ad 3c 26 37 03 3e db b1 24 3e
       -0.28240788 0.0211823 0.12814006 0.16083471
000230 e2 c4 40 3e c7 44 03 be 28 4b f9 bc 51 85 9f bd
       0.18825105 -0.12819205 -0.030431345 -0.077891
000240 ed 50 a8 bc b7 72 99 bb 36 e0 d0 bd 48 1c 56 bd
       -0.0205464 -0.0046828645 -0.10199015 -0.052273065
000250 68 91 b6 ba f2 51 4e bc 71 e9 a1 3d 0e d0 ea 3d
       -0.0013928832 -0.0125927795 0.079058535 0.114654645
000260 53 20 85 bd af 48 4f be f2 0a 80 be 61 5d e3 3d
       -0.06500306 -0.2024257 -0.2500835 0.11101795
000270 0e 9b 84 3d 7d 5c 85 3e f4 23 62 3e 0b b6 04 3d
       0.06474887 0.26047125 0.22084028 0.032400172
000280 c6 c1 10 3f 58 c2 e2 3d ca 13 64 bd 6f 6f c2 3b
       0.56545675 0.110722244 -0.055682935 0.005933694
000290 07 9a fe bd e8 c1 a7 bd 46 50 a8 3b 6d 8a 42 bc
       -0.12431722 -0.081912816 0.0051365225 -0.011873824
0002a0 df e9 5e bd c9 ba 14 3d d0 f5 82 3d 24 f9 11 bd
       -0.054422256 0.036310945 0.06394541 -0.03563799
0002b0 b5 9e 15 3e 46 45 10 3d 72 28 38 3d 31 6c 0f 3e
       0.14611323 0.035222314 0.044960447 0.14006115
0002c0 2a d0 66 be b9 fd e8 bd f2 22 03 3d ad ae a0 3d
       -0.22540346 -0.11376519 0.03201575 0.07845817
0002d0 a4 be cf bd 63 d7 9f be 81 06 2b 3c 7d 33 6c 3e
       -0.10143784 -0.31219015 0.010438562 0.23066516
0002e0 fd ee 25 bd 9e 18 bf 3e c8 ca 4a 3d c4 f5 80 bd
       -0.04051112 0.3732347 0.049509794 -0.06296876
0002f0 af 88 05 3e b1 57 60 3e 2c dc 94 3e 1d 95 da bd
       0.13040422 0.21908452 0.29074228 -0.10672972
000300 80 3e 91 3e 89 af 8c 3d 07 73 14 bc 9e 84 ec 3d
       0.28367996 0.06869418 -0.009060628 0.11548732
000310 5f eb 37 3e b5 fd c3 3e 3f ef e3 bd 0c f5 75 be
       0.1796088 0.382795 -0.11129617 -0.24019259
000320 2f b8 11 be e4 b3 cd bd d7 22 6a be 01 06 1d 3d
       -0.14230417 -0.10044077 -0.22864853 0.038335804
000330 e4 93 9e be 6d d7 0d bd 83 96 98 3e 26 23 e2 bd
       -0.30972207 -0.034629274 0.2980233 -0.1104186
000340 95 9f 75 bd c3 89 00 be b2 5f 8e 3e ec f6 15 3e
       -0.059966642 -0.12552552 0.27807385 0.14644974
000350 6d da 26 3e 4a e5 59 3e 9f 24 3f 3e 18 ed 58 bd
       0.1629426 0.21278873 0.18666314 -0.052960485
000360 ea 2a 11 be 62 38 75 b9 a9 87 a0 bd 49 3c 4c be
       -0.14176527 -0.00023386025 -0.07838375 -0.19944872
000370 f5 8c 28 3e 5e c2 8b bd 29 f7 4e be 12 ff 85 3c
       0.16460021 -0.06824182 -0.20211472 0.016356979
000380 00 27 5e 3c a7 f7 82 3d 08 df cd bc 2d b6 42 bc
       0.013559103 0.06394892 -0.025130764 -0.011884254
000390 2d 10 f8 3d 35 c1 ea bc ad d1 ba 3d 6a 51 df 3d
       0.1211246 -0.028656581 0.09122024 0.109042004
0003a0 9e a0 3a bd 0a 6d 83 bd f0 25 8e 3d b3 db b1 bd
       -0.045563333 -0.06417282 0.0694083 -0.086844824
0003b0 01 23 cf be ea 3a 99 3e 7e e3 aa bd c2 a0 48 3d
       -0.40456393 0.2992776 -0.08344172 0.048981436
0003c0 a7 23 32 3e 2c 77 4f be 27 ee 4c 3e 96 68 32 be
       0.17396413 -0.20260304 0.20012723 -0.17422709
0003d0 04 60 75 be ad ca 42 be e4 8d f2 3d 78 6b 05 3d
       -0.23962408 -0.19022627 0.1184347 0.032573193
0003e0 d4 ba b1 3d 74 73 33 3d a6 76 e8 3d ca 4a d8 3d
       0.08678213 0.043811277 0.113507554 0.1056114
0003f0 2e 74 16 3d a7 63 c6 3c 42 f3 f9 3d c8 34 90 bc
       0.03673189 0.02421744 0.12204601 -0.017603293

weight f4 [64]
000000 ed 1e a7 3f 50 ce c6 3f 3f 53 f6 3f bf 99 d3 3f
       1.3056313 1.5531712 1.9244155 1.6531295
000010 3f a2 c9 3f da 6b d0 3f a3 e3 d9 3f 11 4c d9 3f
       1.5752639 1.6282914 1.7022594 1.6976339
000020 95 3d bc 3f ef 10 b8 3f 23 d7 ca 3f 0a 9e ec 3f
       1.4706293 1.4380168 1.5846905 1.848573
000030 5a a6 db 3f 93 16 bc 3f 82 2f cd 3f df 5c be 3f
       1.7160141 1.4694389 1.6030123 1.4872092
000040 92 c2 01 40 a2 56 ba 3f c5 49 ec 3f cd 38 fa 3f
       2.0275006 1.4557688 1.8460013 1.9548584
000050 d4 e3 b9 3f 70 be c8 3f c4 eb e0 3f cc c5 c9 3f
       1.4522653 1.5683117 1.757195 1.5763488
000060 cd 1e d9 3f 7a 85 de 3f ef 6f d1 3f 5c 9e c6 3f
       1.6962525 1.7384484 1.6362284 1.5517077
000070 40 96 b7 3f 85 f4 ce 3f a2 1c db 3f 17 0a c9 3f
       1.4342728 1.6168371 1.7118113 1.5706204
000080 82 3f e7 3f 5a 8a e6 3f 3b 26 ce 3f 20 b7 b1 3f
       1.8066256 1.8010972 1.6105417 1.388401
000090 c7 e3 dd 3f 14 ee cc 3f bb ef b7 3f ff 80 d5 3f
       1.7335137 1.6010156 1.4370035 1.6679991
0000a0 62 e3 bc 3f 62 9a db 3f 97 45 c5 3f 1f ba dc 3f
       1.4756892 1.7156489 1.5411862 1.72443
0000b0 85 3a e9 3f b2 56 ef 3f 70 88 c9 3f 4a 26 f6 3f
       1.8220984 1.8698332 1.5744762 1.9230435
0000c0 43 b1 c2 3f db a3 de 3f 86 02 e1 3f 03 73 b5 3f
       1.5210346 1.7393755 1.7578895 1.4175724
0000d0 49 0d c3 3f c9 16 b0 3f 72 4a cc 3f 62 cb d0 3f
       1.5238429 1.3756953 1.5960219 1.6312068
0000e0 78 f3 e4 3f 60 10 e2 3f 67 b4 b3 3f 79 0f d5 3f
       1.7886801 1.7661247 1.403943 1.6645347
0000f0 66 f0 c7 3f df 7c cc 3f 67 82 c2 3f 88 d7 af 3f
       1.5620239 1.5975608 1.5196046 1.373765

bias f4 [64]
000000 fd d0 32 bc e4 5b 0b be f1 e7 26 be 7a d5 01 be
       -0.0109140845 -0.13609272 -0.16299416 -0.12679091
000010 e7 f1 5b be fc 40 21 be cf 91 e0 bd dc 3e 7c be
       -0.21478997 -0.15747446 -0.10965311 -0.24633354
000020 a0 34 1b bd a8 57 f7 bc 2c ec ea bd 09 a8 0b be
       -0.037891984 -0.030193165 -0.114708275 -0.13638319
000030 b8 f3 cd be 8b 22 ab bd 95 c7 7d be 55 60 ac bd
       -0.40225005 -0.08356198 -0.24783166 -0.084168114
000040 75 97 f7 bd 0e 0c c3 3c 4c 74 9b be ed 18 6e be
       -0.12089435 0.023809459 -0.30362165 -0.23251696
000050 6e 14 6c bd 4b c1 fd bd 6a b7 80 bd 29 ce f9 3d
       -0.05763667 -0.12390383 -0.062849835 0.12197525
000060 67 bd 95 3d 40 1d f3 bd 37 bb 78 be dc b7 d7 bd
       0.07311516 -0.11870813 -0.24290167 -0.10533115
000070 9c bd a7 3d 05 cf 2d be d5 8f 5b be 75 d8 23 be
       0.08190462 -0.16973503 -0.21441586 -0.1600054
000080 5b 8c 00 bd c4 06 37 be a5 55 ee 3d 61 0f 03 bd
       -0.031383853 -0.17873675 0.11637429 -0.03199709
000090 9f 6e b5 bd d0 35 70 bd b4 ce 01 3e 80 f4 b0 bd
       -0.0885899 -0.05864507 0.12676507 -0.08640385
0000a0 2e c4 cb bc dc 8f 3c be 4a 0f 13 be 81 dd 5a be
       -0.02487382 -0.18414253 -0.14361301 -0.2137356
0000b0 49 eb e4 be 36 36 b6 bd 7b f2 28 be 55 57 54 be
       -0.44710758 -0.08897059 -0.16498749 -0.2073644
0000c0 ba d7 ca 3d d7 a5 ae be ce c8 e2 be 3c 32 ed 3c
       0.09904428 -0.341109 -0.44293827 0.028954618
0000d0 e0 e2 ae bc bc a8 b1 3d 5c dd 12 b9 73 39 34 be
       -0.021348417 0.08674762 -0.00014006108 -0.1760004
0000e0 05 86 a4 be a7 93 1b be 3a a3 b1 bd df bc e0 bc
       -0.321335 -0.15193044 -0.08673711 -0.02743381
0000f0 a1 01 6b be e5 cf 4e be e3 25 4b bd d8 85 b3 bc
       -0.2294984 -0.20196493 -0.04959668 -0.021914408

running_mean f4 [64]
000000 2b b1 a5 3f e0 36 85 be cc 18 1f c0 bb d1 f8 3e
       1.2944692 -0.2601843 -2.4858885 0.48597512
000010 8b 1c 22 3f 1d a5 a6 3f 7d bb a9 3f e0 f4 f1 bf
       0.63324803 1.3019139 1.3260342 -1.8902855
000020 bf d4 1f 40 d5 68 92 be 95 f7 d5 3f 51 34 d0 3e
       2.49736 -0.28595605 1.6716181 0.40664914
000030 cf c0 cc bf 15 11 0f bf 2e 4b 7d bf 5f a3 c0 3f
       -1.599634 -0.5588544 -0.9894284 1.5049857
000040 27 21 f9 bf 36 1b 62 bf b4 4b dd be a2 bd 1b c0
       -1.9463242 -0.8832277 -0.4322182 -2.4334493
000050 e9 9b ea 3f c8 0c 3f c0 a9 24 8f bf d2 26 da bf
       1.832883 -2.985155 -1.1183063 -1.7043097
000060 2d 97 82 c0 6a 32 8f bf f1 36 cc bf 14 57 91 c0
       -4.080954 -1.118726 -1.5954267 -4.5418797
000070 97 c0 f5 bf 0f cf 33 c0 7d 3a ea be 3b 65 9d bf
       -1.9199399 -2.8095129 -0.45747748 -1.2296518
000080 fd 8c 48 3f 77 f4 73 3e e9 33 3c bf 27 3f ac 3f
       0.7834013 0.23823725 -0.7351671 1.3456773
000090 cd 42 17 40 42 41 a5 bd 7b c6 7a bf 4e 91 b9 bf
       2.3634522 -0.080690876 -0.9795911 -1.4497468
0000a0 2b ba be 3c 9f cd 91 bf 88 73 1c c0 af 22 de be
       0.023282131 -1.1390876 -2.4445515 -0.43385836
0000b0 29 ea b8 bf 8c fc b6 bf ac dd fe 3d 7b b4 25 3f
       -1.444646 -1.4295821 0.12444624 0.64728516
0000c0 0c f3 7f 3e 1f cf d1 bf c8 85 33 be 19 30 55 3e
       0.24995059 -1.6391333 -0.17531502 0.20819129
0000d0 d1 cf 13 c0 01 f1 e7 be 62 ab 22 bf 33 82 82 c0
       -2.309559 -0.4530106 -0.6354276 -4.0783935
0000e0 46 5f 20 3e 66 9f 88 bf 00 dc c6 3d e8 38 3e c0
       0.15661344 -1.0673645 0.097099304 -2.9722233
0000f0 72 97 43 c0 5f 0c 19 c0 2f 7d 07 bf 60 d6 8c bf
       -3.0561185 -2.39138 -0.5292539 -1.1002922

running_var f4 [64]
000000 6b ae 7f 40 72 be f6 3f ae c4 3c 40 6b 2d 31 40
       3.9950206 1.9276869 2.9495044 2.768397
000010 7e 91 48 40 23 75 09 40 52 84 94 40 02 cf de 3f
       3.1338801 2.1477745 4.6411524 1.7406924
000020 75 4e eb 3f e0 92 83 40 21 fc 06 40 2f 78 37 40
       1.8383318 4.111679 2.1091387 2.8667104
000030 6d a1 78 40 2f e5 5d 40 f2 ef 43 40 c3 87 36 40
       3.8848526 3.4671133 3.06152 2.8520362
000040 cb a4 da 3f 09 de 8e 40 68 fc e1 3f 02 6d 0c 40
       1.7081541 4.464604 1.7655153 2.1941533
000050 86 8d 5d 40 80 e4 71 40 cc d8 46 40 d0 31 81 40
       3.461763 3.7795715 3.1069822 4.0373306
000060 83 69 12 41 45 3b 26 40 cf aa 1e 40 a5 af 71 40
       9.15076 2.5973675 2.4791753 3.7763455
000070 c8 f9 ec 40 f2 b2 54 40 04 01 42 40 97 fb 1b 40
       7.405491 3.323422 3.031312 2.4372308
000080 8d 26 a8 3f 3c 8f 10 40 5b a8 df 3f 3c 92 74 40
       1.3136765 2.2587423 1.7473253 3.8214254
000090 dd b9 38 40 bc 81 dc 3f 6a c5 d3 40 2c 5f 5f 40
       2.8863442 1.7227092 6.6178484 3.4901838
0000a0 f0 c0 85 40 13 a0 f1 3f 16 a5 94 40 a3 04 17 40
       4.179802 1.8876976 4.645152 2.359658
0000b0 5d 87 6f 40 66 81 30 40 3a 0e 24 40 ce 6f 4e 40
       3.742637 2.7578979 2.5633683 3.225574
0000c0 91 10 87 40 14 e1 9a 40 38 cf 86 40 95 c2 6d 40
       4.2207723 4.8399754 4.2127953 3.7150013
0000d0 b2 24 a0 40 2d bf 8a 40 c0 70 23 40 87 2e 58 40
       5.0044794 4.335837 2.5537567 3.3778398
0000e0 78 d9 ed 3f 6a 81 83 40 e2 5a 25 40 8e 38 64 40
       1.8581991 4.1095476 2.583672 3.5659518
0000f0 5f cd 76 40 82 23 29 40 21 dc 6e 40 57 14 92 40
       3.8562849 2.6427922 3.7321856 4.564983

weight f4 [128, 64]
000000 d6 20 86 be 49 a7 da 3e db 76 a8 3d 5a 6b e9 3d
       -0.26196927 0.42705753 0.08225795 0.11397429
000010 6b 69 f9 3d 77 cd aa 3d 1a 60 af 3e c0 75 e8 bc
       0.1217831 0.083399706 0.34253007 -0.02837646
000020 ec 33 c5 3d 3d c4 93 be a5 a1 c0 3e 47 63 75 be
       0.09629044 -0.28860655 0.37623325 -0.23963653
000030 23 85 6d be 6e 72 ba be 4a 11 34 be 5a 27 a5 be
       -0.23195319 -0.36415428 -0.1758472 -0.32256585
000040 b0 e7 16 3e 6d f5 54 3d c8 27 00 3e c6 7a 13 3f
       0.1473682 0.05199187 0.12515175 0.5760921
000050 2d 61 2c be 79 2c 1f bd 28 a4 c0 be b1 62 df be
       -0.16833945 -0.03886077 -0.3762524 -0.43629983
000060 aa 96 42 bd 67 ad c4 be c3 6e e1 bd e1 c9 0d 3f
       -0.047506966 -0.38413545 -0.11007454 0.5538617
000070 da db 8e be 0f fe eb 3e c6 80 da 3d 6f df 11 be
       -0.27902108 0.4609227 0.10669093 -0.1424539
000080 c3 96 3b bd 14 9d b1 3e 17 ec a0 be 44 25 56 be
       -0.045798074 0.34690154 -0.31430122 -0.20912653
000090 ce d2 ae 3e 0f bd 85 be eb b3 bd be b6 44 3e 3f
       0.34145206 -0.26120803 -0.3705133 0.74323595
0000a0 cd b4 ef ba 99 ad 9b 3e eb a5 27 be 85 00 a3 3c
       -0.0018288136 0.30405882 -0.16371886 0.019897709
0000b0 c9 eb a1 3d fb e7 94 3e 6d 7c 46 be cd 50 ff bd
       0.079063006 0.29083237 -0.19383402 -0.124665834
0000c0 18 3b ef bd c8 27 08 bf b8 5a 9b 3e a5 08 86 be
       -0.11681193 -0.531857 0.3034265 -0.2617847
0000d0 08 61 e1 3d bf 3c ee bd c9 46 86 bd b0 0b 03 bd
       0.11004835 -0.1163268 -0.0655647 -0.031993568
0000e0 60 76 91 3e 3d 9b 88 3e 84 3d ab 3d 00 e6 ff 3e
       0.28410625 0.26680937 0.083613425 0.49980164
0000f0 b3 5f 9f be 23 61 07 3e 8b f2 a4 3d f6 fd f0 bd
       -0.311277 0.13220648 0.08054074 -0.11767189
000100 91 78 d4 3e b2 52 ec be e0 38 33 be 1b f0 91 be
       0.41498235 -0.46156842 -0.17502165 -0.28503498
000110 35 d0 3a be 3c d3 8c 3c 86 06 0e be 84 82 a3 be
       -0.18243487 0.017190568 -0.13869676 -0.31935513
000120 9c 64 aa be 5e ed 7b 3e ac b6 d3 be e4 00 79 be
       -0.33279884 0.24602267 -0.41350305 -0.24316746
000130 b4 78 80 3e 86 ca 02 3f 2a dd 19 3e 16 a3 cc 3e
       0.2509209 0.51090276 0.15025774 0.39968175
000140 1c cf 27 be 5b 68 1f 3f 38 8a 99 bc e7 99 ce be
       -0.163876 0.6226861 -0.018742666 -0.40351793
000150 a1 68 a5 be a0 d2 af bd 56 a6 16 3e 2c cf bf 3e
       -0.32306388 -0.085850954 0.1471189 0.37462747
000160 a6 b1 85 3d ce 5d b2 3e 73 9a 1c 3e c2 09 20 bd
       0.065280244 0.34837192 0.15293293 -0.039071806
000170 7a 31 09 3e af 6d a5 be 44 80 bd be 9f a9 57 3e
       0.1339778 -0.32310244 -0.3701192 0.21060799
000180 25 b4 f7 be 8f 21 e0 be 41 2c a5 bd 89 9e 07 3f
       -0.48379627 -0.43775603 -0.080650814 0.5297628
000190 00 20 08 3b 59 ab e1 3d c8 35 a1 bd 31 73 75 be
       0.0020771027 0.1101901 -0.07871586 -0.23969723
0001a0 89 6f e4 3e 7d b7 11 bd 01 81 8b 3e cf c5 cd 3d
       0.44616345 -0.03557538 0.2724686 0.100474946
0001b0 42 ba 3c be 92 62 1b bc 83 ac d0 3e 08 2e fe 3d
       -0.18430427 -0.00948395 0.40756616 0.124111235
0001c0 b8 50 9e 3e 9b 82 94 3e 1c f7 dd be 45 2f 2b be
       0.3092096 0.29005894 -0.43352592 -0.1671725
0001d0 b4 a6 ea 3c 32 15 4d 3d 54 83 a2 3e a9 f3 b3 3e
       0.028643943 0.05006904 0.3174082 0.35146835
0001e0 03 ea 11 bf f1 a5 ca bc 36 02 95 3d 49 97 0a 3d
       -0.569977 -0.02473733 0.07275812 0.033835683
0001f0 cb 6b 5c 3e f1 bc ae 3e 7c d5 98 3e 80 de 1f bd
       0.21525495 0.34128526 0.29850376 -0.039030552
000200 d6 0b 62 3d ac f5 f5 3e a2 17 e4 bd 2f b7 0a 3f
       0.05518707 0.48038995 -0.1113732 0.54185766
000210 98 34 a6 3d cc fc 88 bf 00 08 94 3b 3b 87 2b 3f
       0.081155 -1.0702147 0.0045175552 0.6700322
000220 02 26 27 bd 89 0c 8d bd 6e 54 8a bc 88 cf 30 3e
       -0.04080773 -0.068871565 -0.016885962 0.17266667
000230 ab d1 e6 bd 63 03 bc 3e 83 c9 cc 3e 63 bb 86 3e
       -0.1127046 0.36721334 0.3999749 0.2631484
000240 ef de 84 3f 34 34 77 be 74 07 2d bf 1c 6b 19 3f
       1.0380534 -0.24141008 -0.675895 0.5992906
000250 4d 1a 85 3e 23 c7 55 3e b1 f3 cc 3e 37 7b 10 3e
       0.25996628 0.20876746 0.40029672 0.14109503
000260 00 2d 71 be 8c bd 19 3e 15 79 ae 3e e8 2a da be
       -0.23552322 0.15013713 0.34076753 -0.4261086
000270 86 06 30 3d 5f 25 67 3e 8e c6 ee 3e 20 ba 3a bf
       0.04297497 0.2257285 0.4663586 -0.72940254
000280 63 62 fe be f0 b7 88 be ca 02 1e 3f 5b ad c7 3d
       -0.49684438 -0.26702833 0.61723006 0.09749862
000290 2d 82 82 bf 20 e3 da 3d 0e f8 33 3e 31 07 0d bf
       -1.0195976 0.10687852 0.17575094 -0.550891
0002a0 42 d7 2c bf 6f 9a 5e 3f 3b 04 6c 39 d1 a3 68 bf
       -0.6751596 0.86954397 0.0002250829 -0.90874964
0002b0 af 52 03 3e 4a ee 0d 3f 42 8e 6d bd 9c 82 dd bd
       0.1282451 0.55441725 -0.057996996 -0.108159274
0002c0 11 9f 37 be ab d8 de 3e d3 c9 8a 3d f2 f3 36 3e
       -0.17931773 0.4352468 0.06776776 0.17866495
0002d0 09 5e 58 be 5f 0e 23 3e c3 6a b7 bb 2e e2 9e 3d
       -0.21129622 0.15923451 -0.005597444 0.07757984
0002e0 73 0c 0c 3f fb 26 b1 bf 14 d0 a2 3e 17 81 8d bf
       0.54706496 -1.3840021 0.31799376 -1.105502
0002f0 46 4f 15 3e a8 10 9a be ac ac de be e9 f9 5c be
       0.14581022 -0.30090833 -0.43491113 -0.21579708
000300 2c 59 9d 3e 9d c1 1b be 93 bc 22 3e fd 7f a9 be
       0.30732095 -0.15210576 0.15892248 -0.3310546
000310 b2 ed ac be 44 84 9b be 7f bc b3 be 7b c9 6b 3d
       -0.33775097 -0.30374348 -0.3510475 0.057565194
000320 46 ab 70 bc 1e dc 40 3d 70 2d 03 bf f5 66 e3 3d
       -0.014689272 0.04708492 -0.5124121 0.11103622
000330 39 d1 e7 bd b8 9c ed 3e e3 be 45 bd 54 92 ee 3e
       -0.11319203 0.4640863 -0.048277747 0.46596014
000340 57 28 b4 be a2 a8 f6 3e 52 ae 71 3c ef 96 14 bd
       -0.35187027 0.48175532 0.014751034 -0.036276754
000350 14 09 b1 3d 16 1b 7a be 75 b2 85 3e 3d a7 5c 3e
       0.0864431 -0.24424395 0.26112714 0.21548171
000360 59 a8 fb 3e 28 04 3a 3e d7 f8 2c be ac f5 12 be
       0.49151877 0.18165648 -0.168918 -0.14351529
000370 96 77 61 3e 20 da 02 be 52 f5 0c bf 00 1c 67 bd
       0.22018275 -0.1277852 -0.5506183 -0.056423187
000380 8f ba 7e bd 28 ff 0d bf 77 de 63 3e 8c f5 9a 3e
       -0.062189635 -0.5546746 0.22252832 0.30265462
000390 72 2e bc be 5c 1a ab 3d 6d b5 80 3e 55 47 c4 be
       -0.36754185 0.08354637 0.25138417 -0.38335672
0003a0 50 97 e6 3e c5 19 66 be cd 86 72 3e 8e 16 a8 bc
       0.45037317 -0.22470768 0.23684235 -0.020518567
0003b0 47 40 21 be 56 d6 e6 be fd ec 04 3e 98 58 a0 bd
       -0.15747176 -0.450854 0.12981029 -0.07829398
0003c0 b5 0a 29 3f 9b 5e c3 3e 1f b6 1e bf b3 8f 3d 3e
       0.6603196 0.38158116 -0.61996645 0.18511848
0003d0 1e 41 9e 3d 5e e4 4c 3e c5 e8 5f bc 69 63 07 3e
       0.07727264 0.2000899 -0.013666336 0.13221516
0003e0 9d 74 76 be 0a 3f ac 3c 10 7d e6 3e bd ae 4d be
       -0.24067922 0.021026153 0.4501729 -0.20086189
0003f0 bb 1c 9e bd 7d ad fb 3e 03 37 19 3f 97 33 a8 3e
       -0.07720324 0.491558 0.59849566 0.3285186

bias f4 [128]
000000 47 61 41 be 1d d4 85 3c b6 d7 11 be 28 d2 9c 3e
       -0.18884765 0.016336495 -0.14242443 0.30629086
000010 d8 d0 59 bd 82 95 6e bd c8 0a e6 bc 4c 17 84 3e
       -0.053177685 -0.05824805 -0.028081313 0.25799024
000020 d7 c8 1c 3d 68 80 bb bc 37 69 f1 bc 17 59 06 be
       0.038277473 -0.022888377 -0.029469116 -0.13119923
000030 d9 97 ad 3d 82 8d 9a 3e c9 18 9d 3c 77 da c1 bd
       0.08476228 0.30186087 0.019176858 -0.09465497
000040 ca af 26 bd 4e 45 89 3e c7 be 51 3e 22 50 87 3d
       -0.04069499 0.26810688 0.20482932 0.06607081
000050 e8 7c fe bc 81 9f 39 3e 1e 2c 33 3e 70 ba 1a 3e
       -0.03106542 0.18127252 0.17497298 0.15110183
000060 4f 90 db 3d 65 89 48 3a c5 69 9d 3d 9f 78 52 be
       0.10720884 0.0007649868 0.076861896 -0.20553826
000070 2f d6 d7 bd d8 17 c6 bc 10 8b 1c bd e7 c3 ff 3c
       -0.10538899 -0.024181291 -0.038218558 0.031221343
000080 bc de a0 3d 2f e1 07 be 1f 76 fb 3b 6e 3d 9a bd
       0.07854983 -0.13269494 0.0076739932 -0.07531248
000090 d7 69 01 be cb ce 6f 3e 27 b8 e3 bc fd ff 05 3e
       -0.12638031 0.23418729 -0.027797772 0.13085933
0000a0 e3 94 c3 3b 8c 80 e4 bd 90 79 24 bd 84 62 23 3d
       0.0059686764 -0.11157331 -0.040154994 0.039888874
0000b0 34 cf a9 3e e1 72 c3 3d f4 91 22 bd 98 78 a2 3e
       0.33165896 0.09543396 -0.039689973 0.3173263
0000c0 3f 2d cc bc 70 00 a7 bd 46 a9 83 3d 26 8e a5 3d
       -0.024923919 -0.0815438 0.06428771 0.08083753
0000d0 f9 c0 a3 3e 00 43 4a 3b 90 a5 d9 bd 5c fd 3e 3e
       0.31983164 0.003086269 -0.10627282 0.18651336
0000e0 c5 64 19 3e 3a 0c af 3e 74 4e 2f 3e 26 46 e6 bd
       0.14979847 0.34189016 0.17119771 -0.112438485
0000f0 12 b5 32 3d d0 01 bb bd a6 ea bf bd 69 02 a8 bd
       0.043629713 -0.09131205 -0.093709275 -0.08203585
000100 9c f8 a5 bd c7 6f 89 3b 6f 1b 5a bd f0 be 57 be
       -0.08104059 0.004194233 -0.05324882 -0.2106893
000110 a4 58 35 be cd 95 ab 3d 7f c7 da 3d 13 32 49 3e
       -0.17709595 0.083781816 0.10682582 0.19648008
000120 b8 d2 35 3c 63 e2 1a 3e 98 ad 3b 3d c1 d2 0d be
       0.011097603 0.15125422 0.04581985 -0.13849927
000130 08 21 f4 bc 73 c7 76 3e 8b 1a f2 bd 59 05 5b be
       -0.029800907 0.24099521 -0.11821469 -0.21388759
000140 36 48 e7 3d bc d2 d1 bd ef 9a e3 bd e8 45 ee bd
       0.1129307 -0.102452725 -0.111135356 -0.11634427
000150 ab 9d cf bd 40 14 13 bd 0e a4 bd bd 3a bf 91 bb
       -0.10137495 -0.035907984 -0.092598066 -0.004447845
000160 3c 70 c3 3c df 8b f3 bd 1b 92 fb 3d ad 1b d0 bc
       0.023857228 -0.11891913 0.12283727 -0.025403822
000170 58 b6 96 bc e0 da 53 3d 30 c4 60 bd ac 2d 2f bd
       -0.018397495 0.051722407 -0.0548746 -0.042768165
000180 18 29 9a 3c f4 a6 73 3e 2e f9 9d be 0b ac 4d bd
       0.018818423 0.23794156 -0.30854172 -0.0502129
000190 91 3c 73 3d c5 bd db 3d 63 30 d5 3d 6b f4 f7 bd
       0.059383933 0.10729555 0.1040962 -0.12107166
0001a0 db cc 0b 3d de 89 db bc da bf fb bd 57 68 45 be
       0.034130912 -0.026799139 -0.12292452 -0.19278084
0001b0 bb b3 d7 bd 78 d1 41 bd 72 77 8e 3e a2 1e 99 3d
       -0.10532328 -0.047318906 0.27825505 0.07476546
0001c0 27 5a 3f 3e 85 bb b4 bd e4 0a cf 3d e0 01 b6 bd
       0.18686734 -0.08824829 0.10109499 -0.088870764
0001d0 ed 00 4a bd 3a c7 71 be 96 cb dd bd 0e 0c e8 bc
       -0.04931729 -0.23611155 -0.108298466 -0.02832606
0001e0 0f 6b 90 3c 4e 5d 48 3d 3d 33 9b 3e 28 97 1d bd
       0.017629175 0.048917107 0.3031253 -0.038474232
0001f0 ca 59 41 be dc 7d d1 bb 24 2f 5b bd 98 7d 38 3a
       -0.18881908 -0.0063931774 -0.053511754 0.0007037758

weight f4 [35, 128]
000000 b7 c7 d9 bd 88 26 31 bf 5e 9c bc be c9 45 7a be
       -0.10633796 -0.6919942 -0.3683805 -0.24440683
000010 6a 25 86 bd a2 4d e9 bc 3b b3 17 bd 07 49 7a 3e
       -0.06550105 -0.028479401 -0.037036162 0.2444192
000020 1d 79 93 3d 1f 55 e7 3e 61 73 a7 bd be 53 92 bd
       0.07200835 0.4518213 -0.08176304 -0.07144879
000030 32 2a 21 bd c3 69 ae bc 66 85 1b 3c 3d aa e8 bc
       -0.03934688 -0.021290665 0.009492254 -0.028401488
000040 64 d3 c8 bc 8b 06 af bd f9 eb 69 3f 21 8c a2 3d
       -0.024514861 -0.0854617 0.9137569 0.07936884
000050 16 ab a6 bd c4 e2 80 be 56 e5 a1 be b0 8f 4e 3e
       -0.08138101 -0.25173008 -0.31620282 0.20172
000060 a9 03 5c be 7f 28 ab bf 44 ad 59 3d 89 be 29 3d
       -0.21485771 -1.3371733 0.053143755 0.041441474
000070 e5 ea 04 bd cf 1a 8a ba af fc 23 bd a9 72 d3 bd
       -0.032450575 -0.0010536554 -0.0400359 -0.10324604
000080 02 b0 1c bd 3a 12 ca 3d 96 c4 d9 3c ad a8 80 be
       -0.03825379 0.09866758 0.026582997 -0.2512869
000090 7e c6 13 3d 5c 51 f9 be c8 3c dd bc 4e e7 ab 3d
       0.03607797 -0.48694885 -0.027006522 0.08393727
0000a0 84 8e ea be 2d ae 54 bc b6 81 93 3c 05 69 be 3e
       -0.45811856 -0.01298098 0.018006187 0.371895
0000b0 16 9b 9e 3e bc d8 11 3e 30 70 65 bd 7f 56 55 3e
       0.30977696 0.14242834 -0.056015193 0.20833777
0000c0 0b 71 31 3c 82 c9 6d 3d 11 50 94 3d ba 44 05 3d
       0.010830174 0.0580535 0.07241834 0.032536246
0000d0 0f 96 9f 3c 8e 10 02 bd 45 1f 0b bc e1 29 33 bf
       0.019480733 -0.03175407 -0.008491342 -0.6998578
0000e0 35 26 82 be 5e c0 28 bf 0d 0f c7 3e b9 ca 91 3d
       -0.25419775 -0.6591853 0.3887867 0.071187444
0000f0 e8 f4 b9 bd 17 44 44 bc 87 37 68 bb 07 be a3 bd
       -0.09079915 -0.0119791245 -0.0035433488 -0.07995229
000100 ee 06 50 3d 7b ce ba 3c 84 88 af bd 77 28 4a be
       0.05078786 0.022803536 -0.0857096 -0.19741999
000110 67 17 9e bc aa e7 79 3d 12 6a 3d bd fa 4e 22 bd
       -0.019298268 0.061011948 -0.046243735 -0.0396261
000120 87 7b 88 bc e2 3e 03 3e b6 dd e5 3d 57 3d 49 3f
       -0.016660465 0.12816957 0.11223929 0.7860922
000130 36 05 27 3d 48 04 48 3d 70 13 61 be 67 5a c5 bd
       0.040776454 0.048832208 -0.21980071 -0.096363835
000140 5e 25 aa 3d ac 69 81 3d 41 f3 23 3d 41 2f 29 bf
       0.083079085 0.063189834 0.040026907 -0.6608773
000150 36 9e 04 bd 1b 28 3b 3d 98 fd ee bc 75 ae 9a be
       -0.032377444 0.045692544 -0.029173657 -0.30211225
000160 d6 a0 30 bf b1 25 df bc 46 8f d2 bb 01 77 35 bd
       -0.68995416 -0.027239652 -0.006425771 -0.044302944
000170 26 53 7f bd 1b 1a 9d 3d 18 1f ca bd 50 c3 8e bd
       -0.062335156 0.07670995 -0.09869212 -0.06970847
000180 03 ac 55 3c 39 da a7 3e 7f ca fb be 40 bb ae 3e
       0.013041499 0.32783678 -0.4917793 0.34127235
000190 da 04 fa 3c b9 83 2a bf 45 a7 8f 3e 61 ab e9 be
       0.030519892 -0.6660724 0.28057304 -0.45638564
0001a0 7f e7 1c bf 6f 72 c7 3c b6 68 a2 3d 81 6a 0a 3e
       -0.61290735 0.024346558 0.07930128 0.1351719
0001b0 02 21 6d 3d 35 81 96 3d 5e 83 09 bf 80 52 6d 3e
       0.057892807 0.07348863 -0.53716075 0.23176003
0001c0 80 39 0b 3e 1d bc a9 bd ee 58 2b 3f 27 e4 a5 bd
       0.13596153 -0.08287833 0.6693257 -0.08100157
0001d0 9a 7e 6a bd c9 c5 88 3e 05 ef 21 bf 97 15 77 be
       -0.057249643 0.26713398 -0.6325534 -0.2412933
0001e0 8d c1 1f 3d f0 86 39 3e d3 b2 ae 3e 9d fa b8 3c
       0.039002944 0.18117881 0.34120807 0.02258044
0001f0 d8 03 82 be a1 b7 3e bc ea f9 51 3d e5 83 89 bd
       -0.25393558 -0.01164046 0.051263727 -0.0671461
000200 ee fa 7e bd 10 e7 ab be 96 ab b1 bd e0 36 83 bc
       -0.062251024 -0.33574724 -0.086753055 -0.016017377
000210 10 9b 98 3d 0c bf a5 3c 4c f2 92 bd 16 c7 fd 3a
       0.07451451 0.0202327 -0.07175121 0.00193617
000220 98 48 8c bd d3 c4 b4 3e e5 0a 98 bd a9 a1 d8 bc
       -0.06849784 0.35306415 -0.07423953 -0.026444273
000230 8f 74 43 bd fb 6d f7 3e 06 d0 0c c0 d6 09 a9 3d
       -0.04771858 0.48326096 -2.2001967 0.08253829
000240 90 f4 47 3c 1a 9c 85 3e 84 45 a3 bf 9b aa 75 3d
       0.012204304 0.2609566 -1.275559 0.059977155
000250 cf 83 8e bd e2 4d f4 3d 53 f0 2c be d6 85 ca be
       -0.06958734 0.119289175 -0.16888551 -0.39555234
000260 81 1b f8 3d 81 cb 38 3e 5b 48 df 3b 40 51 53 bf
       0.12114621 0.1804638 0.0068140454 -0.8254585
000270 8b 31 2c bc 79 fe 0a bd 7a 25 78 bd 52 a4 34 bd
       -0.010509859 -0.03393409 -0.060582615 -0.04410202
000280 d7 69 60 3c 27 44 49 bf 22 6c 26 3f 5d 35 80 be
       0.013697109 -0.7861962 0.6500875 -0.25040713
000290 02 fa e1 bd 35 56 b5 3e 5c 1f 0a bd 78 cf ae 3e
       -0.11034013 0.35417333 -0.033721313 0.3414266
0002a0 07 f9 35 3f 75 4e 67 3d dd ba a6 bd 01 58 1f 3e
       0.7108311 0.056471307 -0.0814111 0.15560915
0002b0 7f b4 78 3e 24 81 4d be a9 3a 6d bd 27 e1 92 be
       0.24287604 -0.20068794 -0.05791727 -0.28687403
0002c0 0b 86 62 3c 99 de 0e 3f 93 d4 df 3b 58 c2 2d 3d
       0.013825904 0.5580841 0.0068307607 0.04242167
0002d0 8c 09 07 3f 28 bd 36 bd 63 ca ad bd b0 35 42 bc
       0.5274894 -0.044613987 -0.08485868 -0.01185362
0002e0 02 5d f2 3e 0a c8 e5 3e 18 a7 13 c0 b8 e8 97 3c
       0.47336584 0.4487918 -2.3070736 0.018543586
0002f0 8e 4c 31 3d ac 7d 51 bc 4a d2 04 3b a2 27 bc 3b
       0.0432859 -0.01278631 0.0020266944 0.0057420293
000300 e2 cf 9d bd ee e0 2a bd 34 c8 dd 3c c8 64 3b bf
       -0.07705666 -0.041718416 0.027073003 -0.73200655
000310 8c d6 45 bf 8b 49 5a bd aa 31 a8 3c dc 8f 69 3e
       -0.772805 -0.053292792 0.020531494 0.22808784
000320 68 3d bf bd 03 7e c3 3d a7 d0 de 3d 1d 3b 72 c0
       -0.09337884 0.09545519 0.10879641 -3.784858
000330 98 67 7c 3d 86 91 71 3c d8 c7 09 3f eb 83 20 c0
       0.061622232 0.014744168 0.5382056 -2.5080516
000340 da fd 2e 3e d2 c2 17 bd ee eb 19 bd 6d a2 08 3e
       0.17089024 -0.03705103 -0.037578516 0.1334321
000350 b2 59 15 3b f2 d9 39 3d c6 fd 1e bd f9 02 a1 3e
       0.0022789058 0.045373864 -0.038816236 0.3144758
000360 64 02 40 3f 13 fa f7 bc 81 1d 0c 3c 98 8a bd bc
       0.7500365 -0.030270612 0.008551956 -0.023137376
000370 07 6b a2 bc 2b 62 80 3c 27 60 3e bf f7 92 db 3c
       -0.019826425 0.01567181 -0.74365467 0.026803477
000380 4d 8f a7 3d fa 53 3e bd f4 6c 4d 3e d7 07 e6 3e
       0.08181629 -0.046466805 0.20061094 0.44927856
000390 00 02 6d 3d a7 3c ea bd ee a6 9b bf da 4c e2 3e
       0.057863235 -0.1143735 -1.2160318 0.44199258
0003a0 69 72 03 3f d8 1a f3 bc 17 7b a6 3d 2d 8b 69 bf
       0.5134645 -0.029675886 0.08128946 -0.9122799
0003b0 de f4 ac 3d a2 94 41 bd af 78 34 bd 86 96 c5 bd
       0.08445142 -0.047260888 -0.044060405 -0.09647851
0003c0 fb c7 96 3e f0 d9 96 bc 56 10 fe 3e 32 67 c5 bc
       0.29449448 -0.018414468 0.49621838 -0.024097059
0003d0 54 27 55 3d 28 6a 37 bf b4 e1 a9 3e e0 fa 6c 3d
       0.05203946 -0.71646357 0.3318001 0.05785644
0003e0 07 5c a0 3c d2 08 12 3e 66 a7 ee be e3 f1 93 bd
       0.019575132 0.14261177 -0.4661209 -0.072238706
0003f0 49 6f ea be e3 ff 80 3d cc 40 01 3d 04 20 39 3d
       -0.4578803 0.062988065 0.031555936 0.045196548

bias f4 [35]
000000 fe 52 5a 3e 13 38 4f 3d 83 c8 85 bc ad e9 8b 3d
       0.21320722 0.050590586 -0.016330963 0.068316795
000010 49 d6 8f bc f0 18 09 be a0 e9 eb b9 95 fe 33 3d
       -0.017558234 -0.13388419 -0.00044996757 0.04394396
000020 d6 bb 4a be 6b 76 74 3d 65 3c 71 3e a3 9e 05 be
       -0.19798216 0.059683245 0.23558195 -0.13048796
000030 03 1d 87 3e 20 a4 06 3e 28 61 86 b9 d0 22 ab bd
       0.26389322 0.13148546 -0.0002563086 -0.08356249
000040 c9 90 b1 3d 96 70 53 be 71 db c3 be b1 e6 66 3d
       0.08670194 -0.20648417 -0.38253358 0.05637235
000050 76 46 aa 3d e0 d3 d8 3d f4 78 5e be 71 06 a9 bc
       0.083142206 0.10587287 -0.21725827 -0.020632954
000060 1c 08 bd 3d 70 e6 63 3d 4c d4 42 bd 10 90 2d be
       0.09230062 0.055639684 -0.047565743 -0.16949487
000070 88 72 2c bd 4f d5 03 bd a9 ad 6c 3d a9 e8 0f be
       -0.042101413 -0.03218585 0.057782803 -0.14053597
000080 32 69 d8 3d 1b ed 2a 3d 01 57 1b 3e
       0.105669394 0.041730028 0.15169908
