CNN/cnn_model.pth (torch, 139417 bytes, 19 tensors)

weight f4 [3, 1, 3, 3]
0	0xbe1226a8	-0.14272559
1	0x3e3d7606	0.18502054
2	0x3ee6377a	0.449642
3	0xbc0ce2b8	-0.008598976
4	0xbea26b3c	-0.31722438
5	0x3eacf1ad	0.33778134
6	0xbec9533a	-0.3932131
7	0x3d2e4d39	0.042554114
8	0xbda02ba5	-0.078208245
9	0x3d3ac579	0.04559848
10	0xbd9950ba	-0.074861005
11	0xbe8da4b3	-0.27664718
12	0x3e69b2c1	0.22822095
13	0xbe14511b	-0.14484064
14	0xbe8be55a	-0.2732342
15	0x3f21b4c1	0.63166434
16	0x3ba06cdc	0.0048957895
17	0xbdb7ab25	-0.0896819
18	0x3e9457d0	0.28973246
19	0x3e36c337	0.17847906
20	0x3e162d4b	0.14665715
21	0x3ea4196b	0.32050642
22	0xbe635717	-0.22201191
23	0xbed96d1c	-0.42466056
24	0x3e925e86	0.2858774
25	0xbe7521f6	-0.23938736
26	0xbe9fde93	-0.31224498

weight f4 [3]
0	0x3f7d4620	0.9893513
1	0x3f8b5119	1.0884124
2	0x3f6163c4	0.88042855

bias f4 [3]
0	0x3e401b97	0.18760525
1	0x3e6715a4	0.22566849
2	0x3f09fbb0	0.5389967

running_mean f4 [3]
0	0x3d0d9b50	0.034571946
1	0x3cbe30ab	0.023216566
2	0x3c37f278	0.011227243

running_var f4 [3]
0	0x3c369bb2	0.011145519
1	0x3c6c62e5	0.014427875
2	0x3c73b6db	0.014875139

weight f4 [32, 3, 1, 1]
0	0xc06aab04	-3.666688
1	0xbba2b4b3	-0.0049653887
2	0x3aa44df8	0.0012535444
3	0x3e399336	0.18122563
4	0x3f37d0dc	0.7180307
5	0x3e1a491d	0.15066953
6	0xbf05a9fd	-0.52212507
7	0x3e8d5f22	0.27611643
8	0x3e016914	0.1263774
9	0x3dce1e6c	0.10064396
10	0xbf6f4c44	-0.9347575
11	0x3d974a0b	0.073871695
12	0xbe197f6c	-0.14990014
13	0x3e0c73d4	0.1371606
14	0x3f1cf10c	0.6130531
15	0xbdfacac9	-0.122457094
16	0xbf29bb5d	-0.6630152
17	0x3eb0da80	0.34541702
18	0x3e84a5f4	0.25907862
19	0xbe42072a	-0.18948045
20	0xbf010ae8	-0.50407267
21	0xbeeaa914	-0.4583212
22	0x3ed9e697	0.4255874
23	0xbf1371b7	-0.5759539
24	0x3d91b773	0.07115068
25	0xbce21518	-0.027597949
26	0x3f80fcd0	1.0077152
27	0x3eb69715	0.3566214
28	0xbed7138d	-0.42007104
29	0x3e41e7ff	0.18936156
30	0xbef9e929	-0.488107
31	0xbf0a6633	-0.54062194
32	0x3eeec61f	0.4663553
33	0xbf277f50	-0.6542864
34	0x3e04b6bf	0.12960337
35	0x3ee14ec3	0.44005403
36	0x3d894310	0.06702244
37	0xbed897c5	-0.4230329
38	0x3efff4d4	0.49991477
39	0x3dc393f6	0.09549706
40	0xbf272270	-0.6528692
41	0x3e904562	0.28177935
42	0xbe6e8ab2	-0.23295096
43	0x3eb67672	0.35637242
44	0x3e068e0d	0.13140126
45	0x3ec145b3	0.3774849
46	0xbed52a26	-0.4163372
47	0xbeefca10	-0.4683385
48	0xbe96d0ae	-0.29456085
49	0xbed62a29	-0.4182904
50	0xbeebfde8	-0.46092153
51	0xbef0a87f	-0.47003552
52	0x3de93b0d	0.11388216
53	0xbed9e7ab	-0.4255956
54	0xbf563e69	-0.8368898
55	0xbe88e418	-0.26736522
56	0xbd57822e	-0.052614383
57	0x3e969331	0.29409173
58	0x3eb2fe36	0.34959573
59	0xbeb07974	-0.3446766
60	0x3d8f0338	0.06983036
61	0xbecbb8f6	-0.39789551
62	0xbebaa093	-0.36450633
63	0x3d81c87b	0.06337067
64	0xbea4c34c	-0.3218025
65	0xbf7204d0	-0.94538593
66	0x3e0b3ea4	0.13598114
67	0xbf00c4da	-0.5030037
68	0x3d3785c4	0.044805303
69	0xbf0196d7	-0.5062079
70	0xbe78339e	-0.2423844
71	0x3ed61306	0.4181139
72	0xbf5fceaa	-0.8742472
73	0x3d6652cf	0.056231316
74	0x3d0805b2	0.033208556
75	0x3e866f5f	0.26256844
76	0x3f5ec8c1	0.87025076
77	0xbe323b85	-0.17405517
78	0xbc23865e	-0.009980766
79	0xc0592246	-3.392717
80	0x3b8c959b	0.0042902953
81	0xbf10fccd	-0.56635743
82	0x3e8f4a2d	0.2798628
83	0xbe17c3fe	-0.14820859
84	0x3f507b6f	0.81438345
85	0x3eb9550f	0.36197707
86	0x3e5cb10b	0.21551912
87	0xbb79a2fc	-0.003809153
88	0x3e205607	0.15657817
89	0xbedb8284	-0.42873013
90	0x3da10d61	0.0786388
91	0xbe9b283d	-0.30304137
92	0x3f287f44	0.6581919
93	0x3e666979	0.22501172
94	0xbf20040e	-0.62506187
95	0xbe1c019b	-0.15234987

weight f4 [32]
0	0x3fa6f311	1.3042928
1	0x3ea93268	0.3304627
2	0x3f55b6de	0.8348216
3	0x3f14b983	0.5809557
4	0x3ee86f59	0.45397452
5	0x3fa219e4	1.2664151
6	0x3f90dc0d	1.1317154
7	0x3fa75e2f	1.3075618
8	0x3f364680	0.71201324
9	0x3f117a40	0.56827164
10	0x3f905e8f	1.1278857
11	0x3f6b302d	0.91870385
12	0x3f35acb5	0.70966655
13	0x3f8d1f69	1.1025211
14	0x3e4c1dcc	0.19933242
15	0x3f08d20e	0.5344552
16	0x3fbfe97c	1.4993129
17	0x3f770e34	0.9650605
18	0x3f96ef35	1.179175
19	0x3edcdc58	0.4313686
20	0x3f0e2ffd	0.55541974
21	0x3f9b8716	1.21506
22	0x3f92f7bb	1.1481851
23	0x3fa460fa	1.2842095
24	0x3f725995	0.9466794
25	0x3ef98c81	0.48740008
26	0x3f8fe5e9	1.1242038
27	0x3f8a41bb	1.0801309
28	0x3f3636bb	0.7117726
29	0x3fa7679e	1.3078496
30	0x3f4fbb2f	0.81144994
31	0x3f2260ff	0.63429254

bias f4 [32]
0	0xbead2d12	-0.33823448
1	0xbeb76975	-0.35822645
2	0xbea8c138	-0.32959914
3	0x3f06fe9f	0.5273227
4	0x3e5a63fd	0.21327205
5	0xbefcef6e	-0.4940142
6	0xbf1e47a1	-0.6182805
7	0xbf049ebd	-0.51804715
8	0xbf59d392	-0.85088456
9	0xbeca273e	-0.39483064
10	0xbeab049c	-0.33401954
11	0xbce8a076	-0.028396826
12	0xbf024f8c	-0.5090263
13	0xbf1116fb	-0.5667569
14	0x3cae20ec	0.021255933
15	0x3e014dcd	0.12627335
16	0xbf284afa	-0.65739405
17	0xbd2cd145	-0.042191762
18	0xbe95144d	-0.2911705
19	0x3dc7edf4	0.09762183
20	0xbe9566b6	-0.29179925
21	0xbe29fb72	-0.16599825
22	0xbee319c8	-0.44355607
23	0xbed46780	-0.41485214
24	0xbede0c3b	-0.43368706
25	0xbf431c10	-0.76214695
26	0xbe82c0af	-0.2553763
27	0xbeebd72e	-0.46062607
28	0xbf63c81a	-0.88977206
29	0xbf2fe632	-0.68710625
30	0xbd691292	-0.056902476
31	0xbda45f5b	-0.08026

running_mean f4 [32]
0	0xbfb55436	-1.4166324
1	0x3ef76d5d	0.48325625
2	0x3b96e188	0.004604522
3	0xbea30f3d	-0.31847563
4	0x3ed3876e	0.41314262
5	0xbdd2174a	-0.10258348
6	0xbea34c4f	-0.31894156
7	0xbec12ba6	-0.37728614
8	0x3f30711a	0.6892258
9	0x3da3be06	0.079952285
10	0xbddf7312	-0.1091062
11	0x3dcc8ce1	0.09987808
12	0x3e368875	0.17825492
13	0xbd6de461	-0.058079127
14	0x3e1d5d01	0.1536751
15	0xbeb293eb	-0.34878477
16	0xbf1ad9d8	-0.60488653
17	0xbed516e3	-0.41619024
18	0xbef3156e	-0.47477287
19	0x3d065b5c	0.03280197
20	0xbec6958a	-0.38785964
21	0xbf3fd567	-0.74935
22	0xbe0ad233	-0.13556747
23	0xbca9e405	-0.020738611
24	0xbe959946	-0.292185
25	0x3eb96d42	0.3621617
26	0xbfbcebe5	-1.4759489
27	0xbe4a88e9	-0.1977879
28	0x3f1dad99	0.61593014
29	0xbe609d57	-0.2193502
30	0x3eadbb88	0.33932137
31	0xbe9277eb	-0.28607115

running_var f4 [32]
0	0x40b1dc15	5.5581155
1	0x3e87b0a7	0.26501963
2	0x3e4e2b53	0.20133714
3	0x3ec660e4	0.38745797
4	0x3e374afd	0.178997
5	0x3dfd7b3f	0.12377023
6	0x3e3611d0	0.17780232
7	0x3e58188b	0.21103112
8	0x3e9f2fbb	0.31091103
9	0x3e12b195	0.14325555
10	0x3e0791c1	0.13239194
11	0x3e96b239	0.29432848
12	0x3d9e765c	0.07737419
13	0x3e1e6096	0.15466532
14	0x3dfe6865	0.124222554
15	0x3ea7750f	0.32706496
16	0x3e6dc475	0.23219474
17	0x3e12e777	0.1434611
18	0x3e8cbd74	0.2748829
19	0x3d5e3187	0.05424645
20	0x3e3a3f80	0.18188286
21	0x3eee8a93	0.465901
22	0x3e021139	0.12701882
23	0x3df4560d	0.119304754
24	0x3ea99602	0.3312226
25	0x3e840c0a	0.25790435
26	0x40a31c0a	5.0971727
27	0x3e45fed8	0.19335496
28	0x3e9e5bb7	0.30929348
29	0x3d26b456	0.040699326
30	0x3dcfb552	0.10142006
31	0x3e8cf5e9	0.27531365

weight f4 [64, 32, 3, 3]
0	0x3ca9f7f4	0.020748116
1	0x3edddbd7	0.43331787
2	0x3e809ecd	0.25121155
3	0xbd61ec05	-0.055156726
4	0x3ea1cd7a	0.3160208
5	0x3e95d583	0.2926446
6	0xbda0681f	-0.078323595
7	0x3e174c54	0.1477521
8	0xbd7c98e3	-0.06166924
9	0x3e70afcd	0.23504563
10	0xbe18b30c	-0.14912051
11	0xbd0aef9f	-0.033919927
12	0xbe9aeb97	-0.30257866
13	0xbebedc61	-0.3727751
14	0xbe65671f	-0.22402619
15	0xbe6b0f08	-0.22954953
16	0x3d7a6073	0.061127137
17	0x3e9c4caf	0.30527255
18	0xbd482caa	-0.04887072
19	0xbd062be4	-0.0327567
20	0x3dc4cd6b	0.09609493
21	0xbe2075d8	-0.15669954
22	0xbe3b84ae	-0.18312332
23	0xbdcc4695	-0.099744
24	0xbe0997e3	-0.13436846
25	0x3e1a3aab	0.15061443
26	0x3e090ef8	0.13384616
27	0x3cd375e1	0.025813045
28	0x3e1db820	0.1540227
29	0xbd2f0eb0	-0.042738616
30	0xbe1253fa	-0.14289847
31	0xbd6c6bc7	-0.057719972
32	0x3bb4408b	0.005500858
33	0xbc8ec14a	-0.017426152
34	0x3e020971	0.12698914
35	0x3d954357	0.07288235
36	0xbe51d788	-0.20492375
37	0xbe663276	-0.22480187
38	0xbda62289	-0.08112056
39	0xbe826d39	-0.25473955
40	0xbeb5c843	-0.3550435
41	0xbe7a73ac	-0.24458188
42	0x3d30b352	0.043139763
43	0x3c31e08d	0.01085676
44	0x3d85d741	0.06535197
45	0xbc914007	-0.017730726
46	0x3d7279af	0.059198078
47	0x3eae5fdf	0.3405752
48	0xbd44b7dd	-0.04802691
49	0x3edae006	0.4274904
50	0x3eadf835	0.3397843
51	0xbed590e3	-0.41712102
52	0x3e20e3ef	0.1571195
53	0x3dee74f6	0.11643402
54	0x3e03a37c	0.12855333
55	0x3e343b74	0.17600805
56	0xbd9b5fc4	-0.07586625
57	0xbcca5f3f	-0.02470362
58	0xbd2211ae	-0.039567642
59	0xbe903524	-0.28165543
60	0x3e16c10c	0.14722079
61	0xbd1a14f1	-0.037617628
62	0xbe0ce982	-0.13760951
63	0xbe273f99	-0.16332854
64	0x3d29d72e	0.041464977
65	0xbd092b71	-0.033488695
66	0x3dc5898c	0.096453756
67	0x3dd7d5f8	0.10538858
68	0x3e27cadf	0.16385983
69	0xbecadbc4	-0.39620793
70	0xbcb7cdc6	-0.022436988
71	0xbed53dd7	-0.41648743
72	0xbdb72259	-0.08942098
73	0xbdb8fde0	-0.09032798
74	0xbdd57eab	-0.104245506
75	0xbe549557	-0.20760094
76	0xbe07e1be	-0.13269708
77	0x3e009b0a	0.12559143
78	0xbdd58351	-0.10425437
79	0xbdf2de80	-0.11858845
80	0x3e7d3858	0.24728525
81	0x3e2acbc2	0.1667929
82	0xbe1c378d	-0.15255566
83	0xbe4784a2	-0.19484189
84	0xbb142281	-0.0022603574
85	0xbdb0c255	-0.08630816
86	0x3db872a7	0.09006243
87	0x3e331a1a	0.17490426
88	0x3e410321	0.1884885
89	0x3e62802a	0.22119203
90	0x3e1103a4	0.14161545
91	0x3e7a70d1	0.24457099
92	0x3e3f74c0	0.1869688
93	0x3dd7d4ff	0.10538673
94	0x3e19efcc	0.15032881
95	0xbe61a42b	-0.22035281
96	0x3e693dee	0.2277753
97	0x3dce3364	0.10068396
98	0xbe88307c	-0.2659949
99	0xbdff3d74	-0.12462893
100	0x3c449148	0.011997528
101	0xbdf720d2	-0.12066807
102	0xbe7256c8	-0.23665917
103	0xbe1f59d8	-0.15561616
104	0xbf081b73	-0.53166884
105	0x3e3e209e	0.1856713
106	0x3dfe93eb	0.12430557
107	0xbd34d6af	-0.04415005
108	0xbe31499a	-0.17313233
109	0xbf029cb5	-0.51020366
110	0xbe97e092	-0.2966352
111	0xbe7998ff	-0.2437477
112	0xbe3aae1f	-0.18230484
113	0xbd5fc5b5	-0.054631907
114	0x3d7b350f	0.061329897
115	0x3de3157d	0.11088083
116	0x3d5f5a32	0.054529376
117	0x3db83bdf	0.089957945
118	0xbea10f0f	-0.314568
119	0x3d032f32	0.03202743
120	0xbc7603ff	-0.015015601
121	0x3e2f1e3a	0.17101374
122	0x3e94a2e5	0.2903053
123	0xbd90f6d2	-0.07078327
124	0x3de3778d	0.11106787
125	0x3e1e672b	0.15469043
126	0xbddfcda6	-0.10927896
127	0xbda4933f	-0.080358975
128	0xbc56547c	-0.013081666
129	0xbe16e6e4	-0.14736515
130	0xbe6853fa	-0.22688285
131	0xbe96274f	-0.29326865
132	0xbe236603	-0.15956883
133	0x3cdaadcf	0.026694207
134	0xbd11b282	-0.03557063
135	0xbd70f019	-0.058822725
136	0xbd48a3f2	-0.048984475
137	0xbead95bd	-0.33903304
138	0xbee97426	-0.45596427
139	0xbec8e06c	-0.3923372
140	0xbe42a203	-0.19007115
141	0xbec1173f	-0.37713048
142	0xbde7f04c	-0.1132513
143	0xbdb5fa08	-0.0888558
144	0xbc0b7ce3	-0.008513662
145	0x3ddf320b	0.10898217
146	0x3ddccda4	0.1078141
147	0xbe6ebbad	-0.2331378
148	0xbe264646	-0.16237745
149	0xbdea3899	-0.114365764
150	0x3e31d334	0.17365724
151	0x3e99e8af	0.30060336
152	0x3e494063	0.19653468
153	0xbdb80df6	-0.08987038
154	0x3e0bb2df	0.13642453
155	0x3c0e5b57	0.008688769
156	0x3c7af658	0.015317522
157	0x3daab4d1	0.08335269
158	0x3dfcf204	0.12350848
159	0xbeadedd3	-0.33970508
160	0xbdfc8faf	-0.12332093
161	0xbed6eed3	-0.41979083
162	0x3dd9fdc2	0.106441036
163	0x3e601623	0.21883444
164	0x3e555e68	0.20836794
165	0xbce7806e	-0.028259482
166	0xbd1b31da	-0.03788934
167	0x3da9f595	0.08298794
168	0x3dad439a	0.084601596
169	0xbc938f7b	-0.018012753
170	0xbdc8d724	-0.0980666
171	0x3e88468d	0.26616326
172	0x3cac1960	0.021008193
173	0x3dbc8688	0.09205347
174	0x3e3cdca0	0.18443537
175	0xbd009a3b	-0.031397086
176	0xbdd19f57	-0.1023547
177	0xbd6745d4	-0.056463078
178	0xbe2d2f71	-0.16912629
179	0xbe8011ec	-0.25013673
180	0x3e0a68cc	0.1351654
181	0x3e372faf	0.17889284
182	0xbdefed85	-0.11715225
183	0xbdbb3999	-0.09141845
184	0xbd0b84ee	-0.03406232
185	0xbdac81c6	-0.0842319
186	0x3d361fd9	0.044463966
187	0x3d45acd3	0.04826052
188	0x3bbb02d2	0.0057071233
189	0xbe7d1f42	-0.24718955
190	0xbd9dcc17	-0.07704943
191	0x3d8244b0	0.06360757
192	0xbedf1f16	-0.43578404
193	0xbe61336c	-0.21992272
194	0xbdccb59f	-0.09995579
195	0xbe557b97	-0.20847927
196	0xbd15affb	-0.03654478
197	0x3da27ebc	0.07934329
198	0x3e01b352	0.12666062
199	0xbd2b3be4	-0.041805163
200	0x3e5c78cf	0.2153046
201	0xbd24f270	-0.04027027
202	0x3e6623f8	0.22474658
203	0x3ef1535b	0.47133908
204	0xbe7009b9	-0.23441209
205	0x3e7efe74	0.24901754
206	0x3eab61e9	0.33473137
207	0x3deae064	0.1146858
208	0x3eac161e	0.33610624
209	0x3dfbf90e	0.12303363
210	0x3e2298e6	0.15878639
211	0x3e66f90c	0.22555941
212	0xbee34c8a	-0.44394332
213	0x3ec2b8ce	0.3803162
214	0x3ebbc514	0.36673796
215	0xbd74b74b	-0.059745114
216	0xbd802d80	-0.062586784
217	0x3b96fdc5	0.0046078884
218	0x3ce9fa3e	0.028561708
219	0xbe2b9c5a	-0.16758862
220	0xbda7c3cf	-0.081916444
221	0xbdebe172	-0.1151761
222	0xbe0966ff	-0.13418196
223	0x3da4df67	0.08050423
224	0x3d30a38e	0.043124728
225	0x3eeb9f46	0.46019953
226	0x3dac0f00	0.084012985
227	0x3e0e1abe	0.13877389
228	0xbe1f85cc	-0.15578383
229	0xbdfed215	-0.12442414
230	0xbe0edc3b	-0.13951199
231	0x3e054db4	0.13017923
232	0x3ec4bbf1	0.38424638
233	0x3eca3af5	0.39498106
234	0x3d367b74	0.044551328
235	0x3d74e7c6	0.05979135
236	0x3e29b11c	0.16571468
237	0xbe1c2cb1	-0.15251423
238	0x3dc894cc	0.09794006
239	0x3dbdf2e4	0.09274843
240	0xbdeb7394	-0.11496654
241	0x3e43b76a	0.19112936
242	0x3e2f9f5d	0.17150636
243	0xbda5d18c	-0.080966085
244	0x3d8ace51	0.06777633
245	0x3e4df3da	0.20112553
246	0xbe02a6b7	-0.12758909
247	0x3d3fb116	0.04679974
248	0x3e640498	0.22267377
249	0xbe815ab2	-0.25264508
250	0x3e325706	0.1741601
251	0x3c42ff52	0.011901693
252	0x3eae1477	0.33999988
253	0x3e4792c7	0.19489585
254	0x3eac3d6d	0.33640614
255	0xbd20bd08	-0.039242774

weight f4 [64]
0	0x3fbcced5	1.475062
1	0x3ff2d6ac	1.8971763
2	0x3fd413ef	1.6568583
3	0x3fdb6986	1.7141578
4	0x3fd14330	1.6348629
5	0x3fca9200	1.5825806
6	0x3fc35a30	1.5261898
7	0x3fedb4be	1.8570783
8	0x3fd33148	1.6499414
9	0x3fcece5f	1.615673
10	0x3fba5aa6	1.4558914
11	0x3fe6b379	1.8023521
12	0x3fd987df	1.699459
13	0x3fbd358e	1.4781969
14	0x3ff2ec6b	1.8978399
15	0x3fc681ce	1.5508363
16	0x3fd5aa66	1.6692626
17	0x3fb38f41	1.4028093
18	0x3fd82bc0	1.6888351
19	0x3fe25f01	1.7685243
20	0x3fe256af	1.7682704
21	0x3fdf5be2	1.7449915
22	0x3feb85ae	1.8400171
23	0x3fd72fee	1.6811502
24	0x3fd4884e	1.6604097
25	0x3fcfe04a	1.6240323
26	0x3fb90905	1.4455878
27	0x3fcf4c5e	1.619518
28	0x3fcd6d42	1.6048968
29	0x3fcbe0e7	1.592801
30	0x3fd7dc95	1.6864191
31	0x3fba9cb3	1.4579071
32	0x3fdcf3a2	1.7261851
33	0x3fb92901	1.4465638
34	0x3fd1f64b	1.6403288
35	0x3fe92eb3	1.8217376
36	0x3ff0bc91	1.8807546
37	0x3fd010d6	1.6255138
38	0x3fdfb9f0	1.7478619
39	0x3fcf6f86	1.6205909
40	0x3fdd4a2c	1.728826
41	0x3fd81dca	1.6884091
42	0x3fbb3fb5	1.4628817
43	0x3fedced7	1.8578748
44	0x3fc688de	1.5510519
45	0x40060923	2.0943077
46	0x3fde0313	1.7344688
47	0x3fd9e85c	1.7024035
48	0x3fea0472	1.8282607
49	0x3fc0f27d	1.5074002
50	0x3fc781ea	1.5586522
51	0x3fc3fba0	1.5311165
52	0x3fbe6946	1.4875877
53	0x3fbbcec9	1.4672481
54	0x3fd571bc	1.6675334
55	0x3fc736be	1.5563581
56	0x3fb602de	1.4219625
57	0x3fde641a	1.7374299
58	0x3fba7d66	1.4569519
59	0x40012f70	2.0185204
60	0x3fe97239	1.8237983
61	0x3ff88f28	1.9418688
62	0x3fcf4336	1.6192386
63	0x3fb839b1	1.4392606

bias f4 [64]
0	0xbda7f401	-0.08200837
1	0xbf096bf5	-0.53680354
2	0xbe6ffcee	-0.23436329
3	0xbe8bb105	-0.27283493
4	0xbdcbe642	-0.099560276
5	0xbc58ceae	-0.01323287
6	0xbdab0cad	-0.08352027
7	0xbf3f48d1	-0.74720484
8	0xbec4f6ff	-0.38469693
9	0xbeded663	-0.4352294
10	0xbeacc819	-0.33746412
11	0xbedc3f22	-0.43016917
12	0xbe2da9ac	-0.16959256
13	0xbea29c6b	-0.31759962
14	0xbe74b1b4	-0.23895913
15	0xbd465a6d	-0.04842608
16	0xbdc6ee28	-0.097133934
17	0xbe619c1d	-0.22032209
18	0xbe83e4aa	-0.25760394
19	0xbe71b76e	-0.23605129
20	0xbe88ec45	-0.2674276
21	0xbf0cf3f3	-0.55059737
22	0xbdc83f06	-0.09777646
23	0xbe15e986	-0.14639863
24	0xbef7c216	-0.48390263
25	0xbe32b5c7	-0.17452155
26	0xbe773173	-0.24139957
27	0x3c5d8d2a	0.013522426
28	0xbecffd1f	-0.40622804
29	0xbdf433dd	-0.11923955
30	0xbf1c73cb	-0.61114186
31	0xbd73848b	-0.059452575
32	0xbe0028e7	-0.12515603
33	0xbe3a0dac	-0.18169278
34	0xbed99b78	-0.42501426
35	0xbeb39e6c	-0.35081804
36	0xbeee049d	-0.46487895
37	0xbeb5868a	-0.35454208
38	0xbedbe4b1	-0.42947915
39	0xbe9b7406	-0.30361956
40	0xbe30e1e6	-0.17273673
41	0xbdcc4c5f	-0.09975504
42	0xbebd6cff	-0.3699722
43	0xbeef221d	-0.46705714
44	0xbe6c4719	-0.23073997
45	0xbf02fae9	-0.5116411
46	0xbe67b044	-0.22625834
47	0xbe5eab86	-0.21745118
48	0xbf316f4d	-0.69310457
49	0xbea5db31	-0.32393792
50	0xbea0ae26	-0.31382865
51	0xbd9638f6	-0.07335083
52	0xbef3f288	-0.47645974
53	0xbe3795e4	-0.17928272
54	0xbea70e45	-0.32628074
55	0xbecffd86	-0.4062311
56	0xbe526f8d	-0.20550366
57	0xbe8f55f1	-0.27995256
58	0xbc3a0622	-0.011354001
59	0xbf1b3881	-0.60633093
60	0xbeb0c39c	-0.34524238
61	0xbee10837	-0.4395158
62	0xbe80e0f7	-0.25171635
63	0xbea4d167	-0.3219101

running_mean f4 [64]
0	0xbf3fa425	-0.7485984
1	0xbec8a2da	-0.39186746
2	0x3e6b19f6	0.22959122
3	0xbf9bf2e2	-1.2183497
4	0x3fc348f9	1.5256644
5	0xc045191c	-3.0796576
6	0x401b821b	2.429816
7	0xbed0c3f2	-0.40774494
8	0xbf8734e9	-1.0563022
9	0x3f0f52bf	0.55985636
10	0xbf32bd06	-0.69819677
11	0x3f97902b	1.1840872
12	0xbebbba74	-0.3666569
13	0xbf7ae0c4	-0.97999215
14	0x3dc72b2a	0.0972503
15	0xbf28b361	-0.6589871
16	0x3e2fd8b4	0.1717251
17	0xbfd81c39	-1.6883613
18	0xbeafcfbb	-0.34338173
19	0x3e6353b6	0.22199902
20	0x3db9dd09	0.09075362
21	0xbec7ef16	-0.39049596
22	0xbd94b2d6	-0.07260673
23	0x3e813a1d	0.2523965
24	0xbf81f104	-1.0151677
25	0xbfaaa103	-1.3330387
26	0xc07658f8	-3.8491802
27	0x3eeeec7b	0.46664795
28	0xbfa9e9c0	-1.327446
29	0xc016a16f	-2.3536031
30	0xbf50f726	-0.8162712
31	0xbf7d1734	-0.9886353
32	0x3ca5eff2	0.020256016
33	0xc038cfe0	-2.8876877
34	0xbe27f4ec	-0.16402024
35	0xbe98e7b8	-0.29864287
36	0x3e1a7068	0.15081942
37	0xbe96344d	-0.29336777
38	0x3f136893	0.5758144
39	0x3ef71231	0.48256066
40	0xc02da420	-2.7131424
41	0x405d611d	3.4590523
42	0xbfd41cab	-1.6571249
43	0xbe29b59e	-0.16573188
44	0xbf336ddb	-0.700895
45	0xbed8a88a	-0.42316085
46	0x3ea31755	0.31853738
47	0xbecd58b1	-0.4010673
48	0xbf1cbbab	-0.6122386
49	0x3f7b0c76	0.9806589
50	0xc020a840	-2.5102692
51	0xbfc448d2	-1.5334723
52	0xbe593085	-0.21209915
53	0xbf11bcae	-0.5692853
54	0xbf00ab65	-0.5026153
55	0xbf97ba18	-1.1853666
56	0xc0039c9f	-2.0564344
57	0xbfa43c1c	-1.2830844
58	0xbfb58cf3	-1.4183639
59	0xbd093bae	-0.03350418
60	0x3e33e035	0.17565997
61	0xbe84c351	-0.25930265
62	0x3e522f96	0.20525965
63	0xbf97e466	-1.1866577

running_var f4 [64]
0	0x3fdee333	1.7413086
1	0x3fa57697	1.2926816
2	0x4018d50a	2.3880029
3	0x4039fbcd	2.9059937
4	0x3f97c907	1.1858224
5	0x40735eca	3.8026605
6	0x40851203	4.1584487
7	0x40231a5e	2.5484843
8	0x40180ea9	2.3758948
9	0x3fb1c080	1.3886871
10	0x3fbc6cc9	1.4720699
11	0x3fd5532f	1.6666011
12	0x3fdf4207	1.7442025
13	0x3fe7fa57	1.8123273
14	0x3f998894	1.1994805
15	0x402ae834	2.6704226
16	0x4015cba8	2.3405552
17	0x3ffbeba6	1.9681289
18	0x405ee9d9	3.483023
19	0x3f8e7d33	1.1131958
20	0x400243d6	2.0353904
21	0x3fcb8a9d	1.5901676
22	0x3fb6a39c	1.426868
23	0x3fd9ae79	1.700637
24	0x3fac2748	1.3449488
25	0x3fa323bf	1.2745284
26	0x40407234	3.0069704
27	0x3fa4f0eb	1.2886022
28	0x3fadf394	1.3589959
29	0x4001fcbf	2.0310514
30	0x3fc9aabf	1.5755233
31	0x4065e0fd	3.5918572
32	0x3fc52667	1.5402344
33	0x3fff96c4	1.9967885
34	0x3ff04849	1.877206
35	0x40764de3	3.8485038
36	0x3f481449	0.7815595
37	0x3f8fd2fb	1.1236261
38	0x400a62de	2.1622844
39	0x3fca362a	1.579778
40	0x4072b4fc	3.7922964
41	0x40928917	4.5792346
42	0x3fb4756e	1.4098337
43	0x3f87d74d	1.061258
44	0x3f8f01e9	1.1172458
45	0x3f9ce242	1.2256548
46	0x4023b012	2.5576215
47	0x3fa91891	1.3210622
48	0x403e1373	2.969937
49	0x3fa56d80	1.2924042
50	0x3ff66e86	1.9252479
51	0x402e82f5	2.726743
52	0x3fbc75cc	1.4723449
53	0x3f8b83ec	1.0899634
54	0x40379fe2	2.8691335
55	0x3f8f86b5	1.1212984
56	0x40001124	2.0010462
57	0x3fc95d48	1.5731592
58	0x3f552652	0.832616
59	0x401b0921	2.4224322
60	0x3f724b16	0.9464582
61	0x3f9a1883	1.203873
62	0x3f9cad68	1.2240419
63	0x4001cc2c	2.0280867

weight f4 [128, 64]
0	0xbedfd71f	-0.43718812
1	0x3ddc0348	0.10742813
2	0x3e0ff1cd	0.14057083
3	0xbe809c91	-0.2511945
4	0xbe504be8	-0.20341456
5	0xbd32be06	-0.04363825
6	0xbef737a7	-0.48284647
7	0x3ea1b4ff	0.31583402
8	0x3ed1e1a9	0.40992478
9	0xbf11c5d5	-0.5694249
10	0xbe496985	-0.19669159
11	0xbd6eae1b	-0.05827151
12	0xbd494d35	-0.049145896
13	0xbf049f87	-0.5180592
14	0xbe0551fa	-0.13019553
15	0x3d6548ed	0.05597775
16	0x3e310e56	0.17290625
17	0xbdf470e2	-0.11935593
18	0xbe050a39	-0.12992181
19	0x3e949a6c	0.29024065
20	0x3efa437c	0.48879611
21	0x3f36e359	0.71440655
22	0xbf1d2567	-0.61385196
23	0x3dba7559	0.091044135
24	0x3ef14643	0.47123918
25	0xbd6b94df	-0.05751502
26	0x3daa366f	0.08311164
27	0x3eb6fb6b	0.35738692
28	0x3ec0f9d6	0.3769061
29	0xbe985a61	-0.29756454
30	0x3f474aa8	0.7784829
31	0xbe1d04ae	-0.15333816
32	0x3e03067d	0.12795444
33	0x3d87d9a0	0.066333055
34	0x3f24bf1d	0.64354116
35	0x3f23d79f	0.64000887
36	0x3dd9b56e	0.10630308
37	0xbf0ed8ff	-0.5579986
38	0xbd82efc1	-0.06393386
39	0x3eab9f22	0.33519846
40	0x3c672657	0.014108262
41	0xbe256e02	-0.16155246
42	0xbdadadf3	-0.08480444
43	0xbddc2051	-0.10748351
44	0x3cbefc31	0.023313614
45	0xbe55ad11	-0.20866801
46	0x3e44444f	0.19166683
47	0x3f404fd6	0.7512182
48	0x3eb16e80	0.34654617
49	0x3e520f8e	0.20513746
50	0xbec27a80	-0.37984085
51	0xbde3d2fc	-0.111242265
52	0x3f47dd67	0.7807221
53	0xbe970fdd	-0.2950429
54	0x3ed887db	0.4229115
55	0xbe328306	-0.17432794
56	0xbd807a56	-0.06273334
57	0xbeec3880	-0.46136856
58	0xbebc3814	-0.36761534
59	0x3e8b7337	0.2723634
60	0x3e3346b8	0.17507446
61	0xbcb0d4c5	-0.021585831
62	0x3f168267	0.5879273
63	0xbb907f94	-0.0044097397
64	0xbe159226	-0.14606532
65	0x3da42762	0.08015324
66	0x3c57af3f	0.0131643405
67	0xbe46b583	-0.19405179
68	0xbe9ec32f	-0.31008288
69	0xbe83acbd	-0.25717726
70	0x3d9a607b	0.075379334
71	0x3f045aa2	0.51700795
72	0x3f0b4c39	0.5441318
73	0xbf02e7ff	-0.5113525
74	0xbeaa2639	-0.33232287
75	0x3e03e3db	0.12879889
76	0xbe93f43a	-0.28897268
77	0xbf01ee88	-0.50754595
78	0xbf3274d9	-0.69709545
79	0xbe0234e3	-0.12715487
80	0x3eab9619	0.33512953
81	0x3d280ab3	0.04102583
82	0xbdd2a356	-0.1028506
83	0x3d91b185	0.07113937
84	0xbe8c8f49	-0.27453068
85	0x3f15b646	0.5848125
86	0xbf1431e9	-0.57888657
87	0x3dbad372	0.09122361
88	0x3e241d92	0.16026905
89	0xbe4cc4cc	-0.19996947
90	0x3dce47fb	0.10072323
91	0xbd724729	-0.059149895
92	0xbdceaa14	-0.100910336
93	0xbe0de9ca	-0.13858715
94	0x3f3d467a	0.73935664
95	0x3e673725	0.2257963
96	0xbea68c8f	-0.32529113
97	0xbd2cdd3a	-0.042203166
98	0x3f03da2a	0.51504767
99	0x3eebb8b3	0.46039352
100	0xbf1fac4b	-0.62372273
101	0xbf074640	-0.5284157
102	0x3f2601a3	0.6484625
103	0x3f212db6	0.62960374
104	0x3c94643a	0.018114198
105	0x3e59ab6d	0.212568
106	0xbe9a9552	-0.30192047
107	0x3ebbac14	0.36654723
108	0xbbf946fa	-0.007607338
109	0xbe167b60	-0.14695501
110	0x3dc30a64	0.09523466
111	0x3ef6aafb	0.48177323
112	0x3f4f2d3c	0.809284
113	0x3d86e72e	0.06587063
114	0x3cc3f2ab	0.023919424
115	0x3e99ed74	0.30063975
116	0x3ecaf3f2	0.3963924
117	0xbe8f5bb3	-0.27999648
118	0x3ef78f48	0.48351502
119	0xbee9887c	-0.45611942
120	0x3e9e9b7d	0.30978003
121	0xbeba92b1	-0.36440042
122	0xbe9a4fdd	-0.30139056
123	0x3f2eb116	0.6823896
124	0x3e95c1d5	0.29249445
125	0xbca7d6b3	-0.020488119
126	0x3ec294a5	0.38004032
127	0x3d6897d8	0.056785434
128	0x3e8fae7a	0.28062803
129	0xbf05ca1e	-0.5226153
130	0xbe09e355	-0.13465627
131	0x3e4a55a4	0.19759232
132	0x3ef741cc	0.48292387
133	0xbda75f66	-0.08172493
134	0x3e694ceb	0.22783248
135	0xbebd58e1	-0.36981872
136	0xbefc0879	-0.49225214
137	0x3f200deb	0.6252124
138	0x3ef088aa	0.46979266
139	0x3eaf346c	0.34219682
140	0x3f12570b	0.5716407
141	0xbe02f528	-0.12788832
142	0x3da5cc95	0.080956616
143	0x3ea4d0ac	0.32190454
144	0xbeeb02c0	-0.45900536
145	0x3eb0ba08	0.3451693
146	0x3dc3902c	0.09548983
147	0x3eef6b2d	0.46761456
148	0x3ddb52f8	0.107091844
149	0xbd87c2b4	-0.066289335
150	0x3d487d6b	0.048947733
151	0xbf1d47cb	-0.6143767
152	0xbf168faa	-0.58812964
153	0x3e7bfd99	0.24608459
154	0x3e84dc9f	0.2594957
155	0xbd2150d6	-0.03938373
156	0xbe5b181f	-0.2139592
157	0xbe9ff4c1	-0.3124142
158	0x3d54ee83	0.051985275
159	0x3d835802	0.064132705
160	0x3ec2b49b	0.38028416
161	0x3eb0f5fa	0.34562665
162	0xbeb241ad	-0.34815732
163	0xbf48e551	-0.7847491
164	0x3d815b62	0.06316258
165	0x3f26904e	0.6506394
166	0x3c993ccc	0.018705748
167	0x3e46d2fd	0.19416423
168	0x3e013c4c	0.12620658
169	0x3f1314ae	0.5745343
170	0x3efc3b74	0.4926411
171	0xbe211757	-0.1573156
172	0x3d9c9e11	0.07647336
173	0xbf7e795c	-0.9940393
174	0xbe25863a	-0.16164485
175	0xbee56177	-0.44800922
176	0xbef61a1f	-0.48066804
177	0x3efaa834	0.48956454
178	0x3eeb0fbe	0.45910448
179	0x3e63f878	0.22262752
180	0xbd5fb8da	-0.054619648
181	0x3cfa5703	0.030559069
182	0xbeacadfc	-0.3372649
183	0x3e6466f1	0.22304894
184	0xbd51e771	-0.05124611
185	0xbe464bd3	-0.19364862
186	0x3e22d32d	0.1590087
187	0xbe8c1171	-0.27357057
188	0xbf1244b9	-0.5713611
189	0xbf1c450f	-0.61042875
190	0x3e8d5939	0.27607134
191	0x3e4f57bc	0.20248312
192	0xbe0a3613	-0.1349719
193	0x3b947055	0.0045299926
194	0x3cec7ef4	0.02886913
195	0x3c47ff52	0.012206869
196	0xbde44ecf	-0.11147844
197	0xbd8b6fff	-0.06808471
198	0xbc039763	-0.008031699
199	0x3da16d4e	0.07882176
200	0x3d84ca09	0.06483848
201	0xbd95b120	-0.073091745
202	0x3dbd50d8	0.09243935
203	0x3d6f4120	0.058411717
204	0x3bbb24f6	0.005711193
205	0xbdeb789b	-0.11497613
206	0x3d8a6dbc	0.067592114
207	0x3cf6f1c1	0.030144574
208	0xbd3940d5	-0.045227844
209	0xbd7eff49	-0.062255178
210	0xbdb27fb3	-0.08715763
211	0xbdda3386	-0.106543586
212	0x3d36795c	0.04454933
213	0xbde0d0d3	-0.1097733
214	0xbd99b258	-0.075047195
215	0xbd305fd9	-0.043060157
216	0xbda919f3	-0.082569025
217	0x3de05e50	0.10955489
218	0xbde91e8e	-0.11382781
219	0xbcf63d09	-0.0300584
220	0x3d97db87	0.074149184
221	0xbdf9009c	-0.12158319
222	0xbd95eadb	-0.07320186
223	0x3c35b418	0.011090301
224	0xbc8f9fa3	-0.017532175
225	0xbd6d42f0	-0.057925165
226	0x3dec1e21	0.11529184
227	0xbdb332c6	-0.08749919
228	0x3d97b7f6	0.07408135
229	0xbcb93a9e	-0.022610959
230	0x3d8b7144	0.06808713
231	0x3dcdcd9a	0.10048981
232	0x3da8a213	0.08234038
233	0x3bb366ab	0.0054748855
234	0x3d1da209	0.038484607
235	0xbc3318a9	-0.010931172
236	0xbd87e122	-0.066347376
237	0x3d4b54ac	0.049641296
238	0xbd976390	-0.07392037
239	0xbd995841	-0.07487536
240	0x3d88fdff	0.06689071
241	0xbdbb206b	-0.091370426
242	0x3d0000da	0.031250812
243	0xbd5c6c36	-0.053814135
244	0x3d943d02	0.07238199
245	0xbdf7fd35	-0.12108842
246	0xbdbc7b79	-0.09203238
247	0x3cdbc72a	0.026828367
248	0xbba10c4e	-0.004914797
249	0xbda566ad	-0.080762245
250	0xbda72ed2	-0.08163227
251	0x3a8b115b	0.0010610031
252	0xbddb4522	-0.107065454
253	0x3de0fd06	0.109857604
254	0xbd607c73	-0.054806184
255	0xbe01f02e	-0.12689278

bias f4 [128]
0	0xbe8645c9	-0.26225117
1	0x3da52588	0.08063799
2	0x3e03e97c	0.12882036
3	0xbdfddded	-0.123958446
4	0xbb2721e0	-0.0025502369
5	0x3d808c96	0.06276815
6	0x3e00fc08	0.12596142
7	0xbdb5600e	-0.088562116
8	0x3cbc8619	0.023013161
9	0xbdf0db3c	-0.11760566
10	0x3d9235f7	0.07139199
11	0x3d96a780	0.07356167
12	0x3e475d9a	0.194693
13	0xbe97547f	-0.29556653
14	0xbd822098	-0.06353873
15	0xbc335558	-0.0109456405
16	0x3cf77010	0.030204803
17	0x3d0bdd35	0.034146506
18	0xbd73a230	-0.059480846
19	0x3dc8dcd8	0.098077476
20	0x3b4cf0f6	0.0031271554
21	0xbe3f0a27	-0.18656217
22	0xbd8f84c5	-0.07007746
23	0xbe7cf2aa	-0.24701944
24	0xbed1eb24	-0.4099971
25	0xbe0da170	-0.13831115
26	0xbce6f4f6	-0.028192978
27	0xbde3538c	-0.1109992
28	0xbe965ff8	-0.29370093
29	0xbc6c4322	-0.014420303
30	0xbd89c557	-0.06727093
31	0x3ec73dc9	0.38914326
32	0xbd19067e	-0.037359707
33	0xb9f9a2f3	-0.00047614388
34	0xbdddbc06	-0.10826878
35	0x3e72eb89	0.23722662
36	0xbd51edf9	-0.05125234
37	0xbd307109	-0.04307655
38	0x3cc328a3	0.023823088
39	0x3dabdfd5	0.08392302
40	0xbd88ce47	-0.06679969
41	0x3ebfb243	0.3744069
42	0xbe198631	-0.14992596
43	0x3d8b185e	0.06791757
44	0x3d33b235	0.043871123
45	0x3e693af7	0.227764
46	0x3e36f7d5	0.17867978
47	0x3d30b2bb	0.0431392
48	0x3e74500b	0.23858659
49	0xbd6b2d8d	-0.057416487
50	0x3d229e86	0.03970196
51	0x3e13b6cd	0.14425202
52	0xbe94dad4	-0.29073203
53	0xbc98a9c8	-0.018635646
54	0x3e34d661	0.17659904
55	0x39d20cae	0.00040063768
56	0xbda4a128	-0.080385506
57	0x3cb2ff98	0.021850392
58	0x3e2e2bee	0.17008945
59	0x3e131c2e	0.14366218
60	0xbdd5af34	-0.10433808
61	0xbbe4b1e5	-0.0069792145
62	0xbded437a	-0.11585136
63	0x3dcd8e4e	0.10036908
64	0xbe36a810	-0.17837548
65	0x3b41722e	0.002951752
66	0x3dd41bbb	0.10356852
67	0xbc694744	-0.014238182
68	0xbcebd23a	-0.028786767
69	0xbea30235	-0.3183762
70	0xbcd1e16c	-0.025620185
71	0x3c1a4a36	0.009417107
72	0x3e3014d6	0.17195448
73	0x3dcffde7	0.1015585
74	0xbc14e578	-0.009087913
75	0x3b8830de	0.004156216
76	0x3d87a5e8	0.06623441
77	0x3df4cb0e	0.11952792
78	0xbd3fafeb	-0.046798628
79	0x3ca8fdd2	0.020628843
80	0x3da88cb5	0.08229963
81	0x3e8066a3	0.25078306
82	0xbe6742a1	-0.2258401
83	0x3ee1dd80	0.44114304
84	0xbe8ab62f	-0.2709212
85	0xbc3860fe	-0.0112535935
86	0xba772153	-0.0009427268
87	0x3dd44a3e	0.10365723
88	0x3e50cce2	0.20390657
89	0xbe756419	-0.23963965
90	0x3e364072	0.17798021
91	0x3db1add9	0.08675737
92	0xbdcb57d5	-0.09928862
93	0xbc25b670	-0.010114297
94	0x3c47b240	0.012188494
95	0xbe69bf9f	-0.22827004
96	0xbda32458	-0.079659164
97	0x3e9f6fbb	0.3113993
98	0xbe03c216	-0.12867007
99	0x3e4ae5c2	0.19814208
100	0xbd0a3491	-0.033741537
101	0x3e3152ce	0.17316744
102	0xbdaaf9e9	-0.08348448
103	0x3d454eb2	0.048170753
104	0xbe37dd9f	-0.17955635
105	0x3e29cdfd	0.16582485
106	0xbbcbe84c	-0.0062227603
107	0xbcfeb540	-0.031092286
108	0x3e0fd648	0.14046586
109	0x3e2e9c68	0.17051852
110	0xbc67489f	-0.014116435
111	0x3db4161d	0.0879328
112	0xbdd1c6b8	-0.10242981
113	0x3debe9ac	0.11519179
114	0xbdff6bac	-0.12471709
115	0xbd13cb64	-0.03608264
116	0xbe7f9815	-0.24960358
117	0x3d81e058	0.06341618
118	0x3e0df2aa	0.138621
119	0xbd2f55ef	-0.042806562
120	0x3da6a47e	0.08136843
121	0x3c8799e8	0.01655288
122	0x3d1dd179	0.038529847
123	0x3d2c0821	0.04199994
124	0xbe2089ea	-0.1567761
125	0x3d0cdd48	0.034390718
126	0x3e829bd4	0.25509512
127	0x3d9f5d0d	0.0778142

weight f4 [35, 128]
0	0xbe817d59	-0.25290945
1	0x3ec78143	0.38965806
2	0xbe93efe2	-0.28893954
3	0x3d34cfce	0.04414349
4	0x3d4181f7	0.047243085
5	0xbf99be58	-1.2011213
6	0x3f1438d4	0.5789921
7	0xbd16addb	-0.036786895
8	0xbea894dd	-0.32926074
9	0xbd6cd2e0	-0.057818294
10	0x3cbd706a	0.023124892
11	0xbd949f76	-0.07256977
12	0x3f3d13b7	0.7385821
13	0xbd816b4c	-0.063192934
14	0xbd6ad3ab	-0.05733077
15	0xbde27b0f	-0.11058628
16	0xbe47556a	-0.19466177
17	0xbf809201	-1.0044557
18	0x3e1dba18	0.1540302
19	0x3c8de3de	0.01732057
20	0xbcda6842	-0.026661042
21	0x3dfbe3fa	0.122993425
22	0x3e31c77b	0.17361252
23	0xbebd38a7	-0.36957285
24	0xbf1e6847	-0.61877865
25	0x3d6c63ac	0.057712242
26	0x3cc28fed	0.02375027
27	0x3d18a1f0	0.03726381
28	0xbe8ffded	-0.28123417
29	0x3f89238c	1.0713973
30	0xbf0e16e5	-0.55503684
31	0xbdfa828a	-0.122319296
32	0x3b5c5325	0.0033618894
33	0x3ca2cf85	0.019874344
34	0x3d8c38d5	0.06846777
35	0xbec421cd	-0.38307038
36	0xbc4a4d69	-0.012347558
37	0xbd2abaeb	-0.041682165
38	0xbf187128	-0.5954766
39	0x3d55252c	0.052037403
40	0xbd473f69	-0.048644457
41	0x3e9d7f8a	0.30761367
42	0x3dab3034	0.083588034
43	0x3d3a9605	0.045553226
44	0x3d5f86d4	0.05457194
45	0x3e61ddd4	0.22057277
46	0xbf87e34b	-1.0616239
47	0x3a804b0c	0.0009787991
48	0xbf107c5d	-0.56439763
49	0x3ce0db82	0.02744842
50	0xbd3306c4	-0.043707624
51	0x3e78481e	0.2424626
52	0x3e23f54e	0.16011545
53	0xbd7647fa	-0.060127236
54	0xbc296f87	-0.010341532
55	0x3d65ca5d	0.05610119
56	0x3c60a707	0.013711697
57	0xbc4c4166	-0.012466764
58	0xbea00428	-0.3125317
59	0xbb22f16b	-0.0024863135
60	0x3ed8cfb7	0.42345974
61	0x3e1c7986	0.15280733
62	0xbd3e4e9a	-0.04646168
63	0xbc2a6e00	-0.010402203
64	0x3ef96d85	0.4871637
65	0x3f733be1	0.9501324
66	0xbf4e0da1	-0.80489546
67	0xbe652852	-0.22378662
68	0xbf8b640d	-1.0889908
69	0x3e849219	0.25892714
70	0xbcddffb0	-0.02709946
71	0xbd3e46c7	-0.046454217
72	0x3e30b18e	0.17255232
73	0xbefda15a	-0.49537164
74	0x3da54880	0.08070469
75	0xbc718b92	-0.014742749
76	0xbeac0b3b	-0.33602318
77	0xbf03e4b9	-0.5152088
78	0x3f323d63	0.6962492
79	0xbebda03c	-0.37036312
80	0x3e8306cd	0.25591126
81	0xbefb781e	-0.4911508
82	0x3d80dbe5	0.062919416
83	0x3e032bba	0.12809649
84	0x3e806e45	0.2508413
85	0x3ee47f9d	0.4462861
86	0x3d5b8cf0	0.053601205
87	0xbd1ecada	-0.038767673
88	0xbf9990ab	-1.1997274
89	0xbe95ce7a	-0.29259092
90	0xbec3727c	-0.38173282
91	0x3bb38f65	0.0054797404
92	0x3d6bd127	0.05757251
93	0xbd0481d8	-0.03235039
94	0x3d8c60a1	0.06854368
95	0x3e3f3fba	0.18676654
96	0xbd1f2cbe	-0.03886103
97	0x3f942c82	1.1576083
98	0x3d69211d	0.056916345
99	0xbeb0c04b	-0.34521708
100	0xbd9c3782	-0.07627775
101	0xbe3ea854	-0.186189
102	0x3d73904d	0.059463788
103	0xbc912408	-0.017717376
104	0x3ee2e195	0.4431273
105	0xbf0531ef	-0.5202932
106	0x3e9fa188	0.31177926
107	0xbd2daf84	-0.042403713
108	0xbecb6ba9	-0.39730576
109	0xbf2bc57f	-0.6709823
110	0xbdfbc51f	-0.12293457
111	0x3dff56b0	0.12467706
112	0xbfb95bf7	-1.448119
113	0xbef093a6	-0.46987647
114	0xbcce8497	-0.025209708
115	0xbef232d8	-0.47304416
116	0xbc99fff8	-0.018798813
117	0xbcd05788	-0.025432363
118	0xbecf1d96	-0.4045226
119	0x3dab5b10	0.08366978
120	0x3cd5b7b6	0.026088577
121	0x3d3c46fe	0.04596614
122	0xbc9f8729	-0.01947363
123	0xbdc62346	-0.096746966
124	0x3f1c0e64	0.6095946
125	0x3daf7203	0.08566668
126	0xbc164c7d	-0.00917351
127	0xbd736dde	-0.05943095
128	0xbf0050d7	-0.5012335
129	0xbeb09050	-0.34485102
130	0x3eaf64c7	0.34256575
131	0x3bc905da	0.0061347308
132	0x3d30fefb	0.04321192
133	0xbf7133d2	-0.94219697
134	0x3e81732c	0.25283182
135	0x3d75acc0	0.0599792
136	0xbdb3560f	-0.08756649
137	0x3d7458c6	0.059654973
138	0xbd8a8eca	-0.06765516
139	0x3ba43852	0.0050115967
140	0x3decfc2c	0.115715355
141	0xbb0407ed	-0.0020146326
142	0xbca69412	-0.020334277
143	0xbd80beb5	-0.062863745
144	0x3d1dca28	0.03852287
145	0x3e8563a2	0.26052576
146	0x3e9137ba	0.28362828
147	0x3d4dec1e	0.050274007
148	0xbab2bbd6	-0.0013636302
149	0xbffd8e02	-1.9808962
150	0xbeb619fc	-0.355667
151	0x3ed35355	0.41274515
152	0xc014b812	-2.3237348
153	0xbfd17658	-1.6364241
154	0xbecfc1a3	-0.4057742
155	0x3cd8f376	0.026483279
156	0x3cc14d57	0.023596449
157	0xbf3e315a	-0.74294055
158	0xbf38c070	-0.72168636
159	0x3f54bccf	0.831006
160	0xbd4af955	-0.049554188
161	0xbf666e75	-0.90012294
162	0x3d1ba72a	0.038001217
163	0x3eddd774	0.4332844
164	0x3d9d4896	0.0767986
165	0xba2cc704	-0.0006590935
166	0x3e8caabe	0.27474016
167	0xbe579aaf	-0.21055101
168	0xbdc965a7	-0.09833842
169	0x3ed4c0b0	0.4155326
170	0x3d1f5460	0.038898826
171	0x3d92c662	0.07166745
172	0x3d685bf5	0.056728322
173	0x3e1e8d37	0.15483557
174	0x3f192955	0.5982869
175	0xbcaac4ed	-0.020845855
176	0x3de56140	0.112001896
177	0xbd4d6910	-0.050149024
178	0x3e73dfc1	0.23815824
179	0xbedaafd9	-0.42712286
180	0xbe9b7e22	-0.3036967
181	0x3d02be5e	0.03191983
182	0xbd8ebc0d	-0.069694616
183	0xbdd220df	-0.10260176
184	0x3d4df212	0.050279684
185	0xbf3a6462	-0.7280942
186	0xbda4eb4f	-0.08052694
187	0x3ed5ed7b	0.41782746
188	0xbf30f961	-0.6913052
189	0x3ee4ad03	0.44663247
190	0xbc0e1312	-0.008671539
191	0x3ba0f2e1	0.004911766
192	0xbf463434	-0.77423406
193	0xbf9142e6	-1.1348541
194	0x3eae590d	0.34052315
195	0xbf04a270	-0.5181036
196	0x3e80cb03	0.25154886
197	0xbf019242	-0.50613797
198	0xbd45c087	-0.04827931
199	0x3ee9b4c2	0.4564572
200	0x3e417e11	0.18895747
201	0x3eba4f8f	0.36388823
202	0x3c7403ee	0.014893515
203	0x3bd779c3	0.0065757944
204	0x3e02d543	0.12776665
205	0x3ef431b1	0.47694162
206	0xbf4838b0	-0.782115
207	0xbf35dbe2	-0.7103864
208	0xbe15f618	-0.14644659
209	0x3e8fd4a4	0.2809192
210	0xbff2db9d	-1.8973271
211	0x3f4c2fa5	0.797602
212	0xbf182c1a	-0.59442294
213	0xbed850ca	-0.42249137
214	0x3c96fcb9	0.018431054
215	0x3da9e953	0.08296456
216	0x3e927270	0.28602934
217	0xbf4a5066	-0.7902893
218	0x3f0c4b4c	0.54802394
219	0x3d846805	0.06465153
220	0xbd6d724c	-0.05797033
221	0xbd89a349	-0.06720597
222	0xbce6a321	-0.028153958
223	0xbda23104	-0.07919505
224	0xbd99a4b5	-0.075021185
225	0x3ef999d5	0.48750177
226	0xbd38b02c	-0.045089886
227	0xbc82a92d	-0.01594981
228	0x3d35382e	0.04424303
229	0xbcafa523	-0.021441048
230	0xbd883f95	-0.06652752
231	0x3d9ad4f0	0.07560146
232	0xbf10b015	-0.5651868
233	0x3f569020	0.8381367
234	0xbfb7b735	-1.4352785
235	0xbc499162	-0.012302728
236	0x3ef70985	0.4824945
237	0x3ea3dcf0	0.320045
238	0x3e448567	0.19191514
239	0x3e0b8b34	0.1362732
240	0x3ee6d795	0.4508635
241	0x3f1eaf84	0.61986566
242	0xbcba6d4b	-0.022757193
243	0x3ea387da	0.31939584
244	0xc0121c04	-2.28296
245	0x3d3f81f4	0.046754792
246	0x3e8a8111	0.27051595
247	0x3d9bfc61	0.07616497
248	0xbb8d14b6	-0.0043054475
249	0xbd726e9b	-0.059187513
250	0xbf1f6bbe	-0.62273777
251	0xbe8472f8	-0.25868964
252	0xc03a0a2e	-2.9068713
253	0x3bb9d22a	0.0056708055
254	0x3eefa315	0.4680411
255	0x3d647f44	0.055785432

bias f4 [35]
0	0x3e5e651e	0.2171826
1	0x3d8851ad	0.066562034
2	0x3e43f37b	0.19135849
3	0x3bd82d26	0.006597179
4	0xbdc15325	-0.09439687
5	0xbe0c21b6	-0.13684735
6	0x3e144c7a	0.14482298
7	0xbd89747c	-0.06711671
8	0x3e268125	0.16260202
9	0xbd01b57d	-0.03166722
10	0x3dad21bc	0.084537
11	0xbe0d2426	-0.13783321
12	0xbccb55c0	-0.024821162
13	0xbdac1dcd	-0.084041215
14	0xbbf2a878	-0.007405337
15	0x3d8e0e96	0.06936376
16	0xbe155995	-0.14584954
17	0xbe7cb96b	-0.24680106
18	0x3e96ad3a	0.29429036
19	0x3ddd766e	0.10813604
20	0xbd062fbb	-0.032760363
21	0xbda3ac1f	-0.07991814
22	0x3d2dfd6f	0.04247802
23	0x3e0e0d09	0.1387216
24	0xbdf13b44	-0.11778882
25	0xbd7c3ad2	-0.061579533
26	0x3dc22a62	0.0948074
27	0x3dda4a85	0.10658745
28	0xbd8ea28a	-0.069645956
29	0x3dd9a61c	0.10627386
30	0x3df19670	0.11796272
31	0xbee7c99d	-0.45271006
32	0x3daff325	0.08591298
33	0x3e6a1cf5	0.22862609
34	0x3bc80112	0.006103643
